ML/pivot_learner.pth (torch, 18558 bytes, 15 tensors)

convs.0.lin.weight f4 [128, 3]
000000 3d 0b 3d 3e f2 a1 37 3e 68 c4 8f bc 21 21 11 bf
       0.18461318 0.17932871 -0.017549708 -0.56691176
000010 36 57 9e 3e 4c ba f3 bd f2 ff eb 3e 57 e1 b6 be
       0.30925912 -0.11900768 0.46093708 -0.35718796
000020 6d 7f 1f bd 82 1a a2 bd ca 8f 20 bd 1c 14 2a 3e
       -0.038939882 -0.07915212 -0.039199628 0.16609234
000030 d5 64 3e 3d 49 11 11 3e 9a df db 3d c9 09 1d 3d
       0.04648288 0.1416675 0.10736008 0.03833941
000040 37 90 b4 3e 1a 01 00 bf 3c 9e 92 be 4e 39 8b bd
       0.35266277 -0.5000168 -0.28636348 -0.067980394
000050 69 f4 ab 3e bb 48 0e bf fe 3a b0 3e fb a3 d7 be
       0.33584908 -0.5557973 0.34420007 -0.42117295
000060 a1 e6 16 3e 0b 65 14 bf cf 16 91 3d 28 d9 20 3d
       0.14736415 -0.5796668 0.070844285 0.039269596
000070 13 f3 f6 3e a9 08 6b bd 02 47 09 be b4 16 15 3e
       0.48232326 -0.057381306 -0.13405994 0.14559442
000080 88 c2 00 3f 9e 4c 06 bf 24 d7 9a 3e 7c 99 ba be
       0.5029683 -0.5246066 0.30242264 -0.36445224
000090 e1 8b e3 be 28 29 71 be 7d 84 54 3e a2 5a c1 3e
       -0.44442657 -0.23550856 0.20753665 0.3776446
0000a0 4d b0 01 3f 08 54 6b 3e f7 c0 e6 be 0d 20 c5 bd
       0.5065964 0.22981274 -0.45069095 -0.09625254
0000b0 61 9e bd bd 7f f6 fd 3e 08 02 bb 3e 06 a4 02 be
       -0.09258724 0.49602124 0.36524987 -0.12757882
0000c0 ea 00 94 be 7f 74 3d be 12 11 36 bd 2e 2b fd be
       -0.28906947 -0.18501471 -0.044449873 -0.49447006
0000d0 b7 47 f0 be 10 67 80 be e5 f0 91 3e e0 47 fa be
       -0.46929714 -0.2507863 0.285041 -0.4888296
0000e0 e5 3e f4 be 7f f5 2d bc 93 be 11 3f 1d fe c5 be
       -0.47704235 -0.010617613 0.5693142 -0.38670436
0000f0 ad 9f fb be 30 92 08 3f d4 90 db 3e 09 31 83 be
       -0.4914526 0.53348064 0.42883933 -0.25623348
000100 22 89 4f bd 46 d1 29 3e 37 c2 04 bf 8f 63 d1 bd
       -0.05066789 0.16583738 -0.5185885 -0.102240674
000110 25 d2 03 3d b8 95 d5 3e b8 a8 60 3e 3b 1a da 3d
       0.03218283 0.4171579 0.21939361 0.10649534
000120 c9 da 5f 3e e0 6d 17 3e a3 fa 57 3e 29 a4 5e 3e
       0.21860804 0.14788008 0.21091704 0.2174231
000130 e8 38 80 be bd df 07 3f e3 3e 91 3e 5c e8 07 3f
       -0.25043416 0.5307577 0.2836829 0.5308893
000140 a8 c8 61 be e5 d0 fb be 94 ed a5 3d 98 cf 32 be
       -0.220492 -0.4918281 0.08101955 -0.17462003
000150 38 7d 07 3f 47 bc 5a 3e af 28 00 3f 21 2e 03 3f
       0.52925444 0.21360885 0.5006208 0.5124226
000160 fb 53 a9 be 7b ad 28 3e 15 dd 57 bd 9d 4e b5 be
       -0.33071885 0.16472428 -0.052701075 -0.3541154
000170 df dd a4 3e 65 3c ec 3c 99 d8 a6 3e 43 38 ed be
       0.32200524 0.028837392 0.32587126 -0.46331987
000180 0f 22 92 bd d7 6b 7a bd 62 44 e7 bd a0 8f 23 be
       -0.071354024 -0.061138 -0.1129234 -0.15972757
000190 66 b9 08 3f 3e 08 ef be 3b 39 2c bc 27 30 26 3e
       0.53407896 -0.46685976 -0.010511692 0.16229306
0001a0 c9 42 ef 3d 2b c2 b3 3e 6d f5 83 3e 94 43 e6 3d
       0.1168266 0.35109076 0.25773183 0.11243358
0001b0 4c c0 84 3d c3 54 8d 3e 6d 2f 98 be 38 b0 66 be
       0.0648199 0.2760373 -0.29723683 -0.2252816
0001c0 bd f0 a3 3e 70 6a d5 3e 3f 21 06 3f 1c 32 01 3e
       0.32019606 0.41682768 0.5239448 0.12616771
0001d0 3e f5 19 bf 82 b5 20 be 44 3e f5 be 10 ee 1f bf
       -0.60139835 -0.1569424 -0.47899067 -0.6247263
0001e0 42 ff ec 3e 2c 30 c0 3e c0 c2 56 be c6 20 da be
       0.46288496 0.37536752 -0.20972729 -0.4260313
0001f0 4f 9d 52 be 5d 39 f0 be b9 f2 0c be 9e 8a 2c bd
       -0.20567821 -0.46918765 -0.13764466 -0.042124383
000200 ba 78 2d 3e 97 c7 48 3e d5 2d 86 be 79 c7 00 be
       0.16940585 0.19607387 -0.26206842 -0.12576093
000210 8a 3b 8d 3e 8d 3c 02 bf d6 53 1b 3f 95 2d fb be
       0.27584487 -0.50873643 0.606748 -0.49058214
000220 cd d8 e9 be 0f e7 08 bf de 7d 6b 3e a8 3b cf be
       -0.45673218 -0.5347757 0.22997233 -0.40475202
000230 b2 ba ca be 2d 4d 01 3e 89 01 f1 3e df b3 ca 3e
       -0.39595562 0.12627096 0.47071484 0.39590356
000240 c8 a3 b8 3e 64 3e 98 be da f9 0b 3f 7f 5b 22 be
       0.36062455 -0.297351 0.5467812 -0.15855215
000250 af 5d 41 be 17 ce 05 3f 07 19 d2 3e 2f 6a ce be
       -0.18883394 0.52267593 0.4103472 -0.40315387
000260 a3 80 88 3e 94 da cf be ad f0 39 3e c9 81 5f be
       0.26660642 -0.4059645 0.18158217 -0.21826853
000270 ba 8d 0c bf 96 9c d6 3d 47 b8 b4 be 01 ab 89 3e
       -0.5490376 0.10479085 -0.35296842 0.26888278
000280 05 1a 0a 3f 61 44 48 be 8a 65 e5 3e 4e a3 01 bf
       0.5394595 -0.19557334 0.4480403 -0.5063981
000290 64 41 e9 bc 39 28 0c 3f 12 c7 b2 3e 39 47 c0 bd
       -0.028473563 0.54748875 0.34917504 -0.09388585
0002a0 2d ff 05 bf 74 a7 fe be aa 5f ec be 4f 5b f6 3e
       -0.5234249 -0.49737132 -0.46166736 0.48116538
0002b0 25 ff 9a bd 8e 7f 94 be 51 9d bb be 24 3a ca be
       -0.07568196 -0.29003567 -0.3664346 -0.39497483
0002c0 d4 33 22 3e b6 28 0e 3f 23 e4 dd 3e 86 9a 8d 3e
       0.15840083 0.5553087 0.43338117 0.27656955
0002d0 04 5a 89 3e 4e eb ec 3e e3 c7 fa 3e dd f0 f1 be
       0.2682649 0.46273273 0.48980626 -0.47254077
0002e0 4e f8 84 be a8 55 c2 be 2f 0f 7a 3e 70 39 06 be
       -0.2597069 -0.37955976 0.24419855 -0.13107848
0002f0 e5 66 25 3e c9 ad f4 3e 66 3b 90 be b0 ea 46 bc
       0.16152532 0.47788838 -0.28170317 -0.012140915
000300 fe 6e 06 be 09 d4 ba be 22 7f 93 3e 02 47 5f 3e
       -0.13128278 -0.36489895 0.28807932 0.21804431
000310 ec 04 c1 3e 58 8a bf be 0e d6 b9 be c5 d5 88 be
       0.37699068 -0.37410235 -0.36296123 -0.26725593
000320 e2 82 c8 3e df 4e c1 be 1f a2 dd be dd c8 82 be
       0.39162356 -0.37755486 -0.4328775 -0.25543872
000330 08 ac 46 be 66 4e c3 3e 9f 20 10 3f 4c fc a7 be
       -0.19401562 0.3814575 0.56299776 -0.32809675
000340 15 37 9c 3e 8c bc d1 3e 2f 68 7e 3e 66 82 75 3d
       0.30510774 0.40964162 0.2484443 0.05993881
000350 a5 39 87 be ac 5d 70 3d e3 6b 98 3e e6 a0 42 bc
       -0.26411167 0.058683082 0.2976981 -0.0118791815
000360 39 de 36 be d5 9b 91 be 65 10 8b be 91 68 5e 3e
       -0.17858209 -0.28439203 -0.27160946 0.21719576
000370 fc 56 10 3f 09 93 17 bf 6e b0 bf 3e 08 eb ba 3c
       0.5638273 -0.5920873 0.37439293 0.02281715
000380 96 61 c2 be 10 b8 a2 be b8 d7 9d be d1 62 59 3e
       -0.37965077 -0.31781054 -0.30828643 0.21229102
000390 6a a7 56 3e da f6 bf be f4 5e 88 3e a6 8f b8 3e
       0.20962301 -0.3749302 0.26634943 0.36047095
0003a0 85 b3 60 be 24 07 21 be a6 9b 27 bd 72 f4 7e 3e
       -0.21943481 -0.1572538 -0.040919922 0.24897936
0003b0 99 8a bf be f3 14 38 ba da 03 a0 3e 2f 8f 9b 3e
       -0.3741043 -0.00070221646 0.31252939 0.30382678
0003c0 6a b8 c1 3e f0 16 92 be f8 23 8f 3e 05 c4 b2 bd
       0.3783601 -0.28533125 0.2795713 -0.08728794
0003d0 79 8f 02 be ca 10 c7 3e 06 cc a2 3d f6 27 2c be
       -0.12750043 0.38879997 0.07949071 -0.16812119
0003e0 5e 97 82 3e 1c f8 a3 be 11 ef ad 3e 3b 67 b6 3e
       0.2550611 -0.3202523 0.33971456 0.35625634
0003f0 23 f9 67 bd 10 a7 fb be 87 b6 7e 3d 59 84 6d 3e
       -0.05663408 -0.49150896 0.06218579 0.23195018

convs.0.lin.bias f4 [128]
000000 aa 34 12 3e ac b1 8e 3e 4b 0a 9e 3e bb e9 be be
       0.14277902 0.27869928 0.30867228 -0.37287697
000010 62 78 77 3e 2c 31 df 3e 2e da 40 be 44 cb 80 3e
       0.24167016 0.43592203 -0.18833229 0.2515508
000020 a9 fe a7 3e 2c e6 89 3e 53 12 4a 3e 3d eb df bd
       0.32811478 0.2693342 0.19733553 -0.1093354
000030 c0 86 4c 3d 6f 30 20 be eb c6 0d bf 5e 3d 2d be
       0.049933195 -0.15643476 -0.5538165 -0.16917941
000040 9e c1 13 3e ba 7f d6 be 49 1a f2 be 5a 5f ab be
       0.14429328 -0.41894323 -0.4728568 -0.33471185
000050 d7 e8 93 3d e9 72 2e be 8e c3 93 be 7b 9f b6 bd
       0.07222145 -0.17036022 -0.28860134 -0.08917137
000060 17 f7 0e 3d ac 3b af 3b 2c 77 c6 3e f1 0a b1 be
       0.034903612 0.0053476896 0.38762796 -0.3457866
000070 94 18 22 bb c2 55 0c 3d 21 ec a4 3e 7a 45 e4 3e
       -0.0024733888 0.034261473 0.32211402 0.44584256
000080 94 70 00 bb b1 10 ce bd 4c 2a 9f 3e 38 76 37 be
       -0.0019598352 -0.100617774 0.31086957 -0.1791619
000090 b1 c5 3a 3e 88 d5 eb be 30 be 8b 3e ca b2 f7 be
       0.18239476 -0.4606135 0.2729354 -0.48378593
0000a0 2d 94 fa bd ac ee dd be 9f ff 99 be 6b 32 06 bf
       -0.122352935 -0.43346155 -0.30077836 -0.5242068
0000b0 e2 05 84 3e 93 fa dd bd 75 97 b7 3e b8 5f 00 3e
       0.25785738 -0.10838809 0.3585774 0.12536514
0000c0 8f bd c2 3e fe e1 96 be d3 df 80 be 68 c6 c8 be
       0.38035247 -0.29469293 -0.25170764 -0.39213872
0000d0 e3 c8 ca bd 59 23 36 be b0 2a be 3e d9 c6 e8 3e
       -0.09901597 -0.17786922 0.37141943 0.4546421
0000e0 1b 47 f3 bd 53 af 0b bf 1c f2 59 3e 9e 7a d1 be
       -0.11878797 -0.545644 0.21283764 -0.40913862
0000f0 42 25 ed be f0 64 06 bf af bb a8 3e a1 34 45 3e
       -0.46317488 -0.5249777 0.3295569 0.19258358
000100 4f 78 1d 3e 41 4c 31 be c2 c4 0e 3f 01 0f ff be
       0.15377925 -0.17314245 0.5576898 -0.49816135
000110 37 30 8e 3e d6 c2 9c 3d b4 68 89 3e 1b 91 86 be
       0.2777116 0.076543495 0.26837695 -0.26282582
000120 5a 1f 03 3f f7 00 d3 3d 43 9d 0e bf 29 f4 b4 bd
       0.51219714 0.103029184 -0.5570871 -0.08835632
000130 ae 5e bb 3d c3 96 b3 3e 3c 69 e7 3d d2 0b ed 3e
       0.09148918 0.3507596 0.11299369 0.4629808
000140 d4 97 11 3f 07 62 9a 3e 59 1f c3 be 4e 3f a2 3c
       0.56872296 0.30152914 -0.38109854 0.019805577
000150 03 9e b7 be cb 7b 96 be c6 f7 df 3e 75 aa 6e 3d
       -0.3586274 -0.29391322 0.43743724 0.05826803
000160 45 d8 a4 3e 10 8f 7b 3d 59 68 5b 3e 8b 07 0e 3d
       0.3219625 0.061415732 0.21426524 0.034675162
000170 7f 24 b8 3e 3b f8 3a be 8d db 51 3e a7 83 10 bf
       0.35965344 -0.18258755 0.20493908 -0.56450886
000180 6c 3e 08 bf 73 fd 37 3b c3 d8 ea 3e 2e 22 cd be
       -0.5322025 0.0028074651 0.458685 -0.4006514
000190 2d 65 10 3f 8e 87 04 3f 6d 99 e7 be 2a 71 16 3d
       0.5640438 0.5176934 -0.45234242 0.036729015
0001a0 43 48 03 3f 3e 3c 78 bd 38 2e 18 bf 01 f2 53 be
       0.5128214 -0.060604326 -0.59445524 -0.20697786
0001b0 df 2f 29 3e fc 51 99 be d1 f4 43 be 19 0f 4d 3c
       0.16522168 -0.29945362 -0.19136359 0.012515807
0001c0 23 9d d1 be 75 56 97 3d 96 ea e5 3e dd 8f 1d 3e
       -0.40940198 0.07389537 0.44905537 0.1538691
0001d0 0c 68 c4 be 13 88 53 3e 0b 5f a0 3e eb 17 8c be
       -0.3836063 0.20657377 0.31322512 -0.27361998
0001e0 07 fb 04 bf 15 96 53 3d 7c 36 cb bd 2c db a9 be
       -0.5194554 0.0516568 -0.099225014 -0.33175027
0001f0 d1 68 64 be a8 0b be be 6d e2 93 be 4d 09 01 bf
       -0.2230561 -0.37118268 -0.28883687 -0.50404817

fc2.weight f4 [2, 128]
000000 20 47 d4 3c 6f a0 f3 bc 6b 98 a3 bd 01 77 29 3d
       0.025912821 -0.029739587 -0.07988056 0.041373257
000010 3c 81 ef bd b5 f1 81 bd 5d 02 c1 bc e4 9b c3 3b
       -0.116945714 -0.0634493 -0.023560697 0.0059695113
000020 81 aa ae bd 72 18 0c bd c1 9a c0 bd f3 13 96 3d
       -0.08528615 -0.034203 -0.09404517 0.07328024
000030 dd 45 49 be 18 32 e2 3d 3d 92 64 3c b6 bd 02 3e
       -0.19655557 0.11044711 0.013950882 0.12767681
000040 7d 0d b3 bd 45 b8 0f 3e 49 75 3d 3d 20 36 45 3d
       -0.08742807 0.14035137 0.04625443 0.04814732
000050 f8 23 23 3c 9a 09 8f bc 7a e8 f7 3d 1c 6d 22 3d
       0.009957306 -0.017460633 0.12104888 0.039654836
000060 56 ca a4 bd 81 93 3f bd ec 5c 33 bd ab e6 27 3c
       -0.08046405 -0.04677153 -0.04378979 0.010247867
000070 32 d3 98 bd 50 48 c4 bb 4a d5 06 be 81 f5 df 39
       -0.07462157 -0.0059900656 -0.13167301 0.0004271679
000080 2f cc 6f 3c 61 06 2c 3e 0f 8f 2e bd 5f 5a 9f 3c
       0.0146360835 0.16799308 -0.0426169 0.019452272
000090 5a c2 5a bc 18 a5 0e 3e b1 17 02 3d 2a 25 8b 3d
       -0.013352001 0.13930166 0.031760875 0.06794198
0000a0 17 2d 44 3e bc 8a f9 3b 4e 46 f8 bb d8 8b 0f 3e
       0.19157825 0.0076154154 -0.0075767403 0.1401819
0000b0 a9 d7 d9 bd ee 9a 69 bc 10 25 25 be 56 7e 9b bd
       -0.10636837 -0.0142581295 -0.1612742 -0.07592456
0000c0 ea bb d1 bd 99 da cf bb da c4 a1 3d 59 81 ba 3c
       -0.1024092 -0.0063431975 0.078988746 0.022766756
0000d0 61 b6 84 3d 03 a7 14 3e 4e b0 13 be 19 b6 10 be
       0.064800985 0.14516835 -0.14422724 -0.14131965
0000e0 f5 e0 a6 3d 73 61 80 3d e4 30 3a be 8a fa 22 3e
       0.08148376 0.06268587 -0.18182713 0.15915886
0000f0 3d 48 0c 3d ab 98 0b 3e 36 af 8e bc a3 49 9b bd
       0.03424858 0.13632457 -0.017417531 -0.075824045
000100 0e 00 f7 bd ea d2 04 3e 1e 49 65 3b 2b 16 1b 3e
       -0.12060557 0.12971082 0.0034986208 0.15145175
000110 b0 13 0b bc fd ee 76 bc 82 4a da bd da 4b 05 3e
       -0.008488581 -0.015071628 -0.106587425 0.13017216
000120 6c c8 2d be 06 ed db 3d 24 a6 e5 3d f3 9c 86 bc
       -0.16970986 0.10738568 0.112133294 -0.016432261
000130 99 99 03 be 5f 0d 2d ba 26 a4 d1 3d 28 77 25 bc
       -0.12851562 -0.0006601419 0.10236387 -0.01009921
000140 69 91 45 bd 03 48 a6 bc 39 43 ca 3a c1 30 c1 bd
       -0.048234377 -0.02029801 0.0015431411 -0.09433127
000150 c6 f5 84 bc ee 04 de 3d 2a eb 89 bd 15 ec ae bd
       -0.016230475 0.10840784 -0.06734307 -0.08541123
000160 69 4d d9 bd 3a 8b 29 be 41 b8 34 3d c0 2d a9 bd
       -0.10610468 -0.16557017 0.04412103 -0.08260679
000170 1c d3 2b 3c 56 d4 03 3e 0f b0 f3 bd 39 05 90 3d
       0.010487344 0.12873968 -0.11898815 0.07032246
000180 9d 04 04 3e 07 75 48 bd 2d 50 06 be 97 95 20 3d
       0.12892385 -0.04893973 -0.13116522 0.03920516
000190 8e 69 26 be 93 ca 97 bc 14 9d 01 3d b3 31 e0 bc
       -0.16251203 -0.018529212 0.031643942 -0.027367448
0001a0 a9 43 a7 bb b0 35 b7 3d 92 7c 91 3d 5d aa 20 3e
       -0.0051045013 0.08945787 0.07103838 0.15689988
0001b0 79 d9 ba 3d b2 41 cb bc 0e 65 b5 3d fe 4e c6 bd
       0.09123511 -0.0248116 0.08857165 -0.09683035
0001c0 fa ff b6 3d 81 00 2d be 9e 51 07 be 3b 8a c9 bd
       0.089355424 -0.16894723 -0.13214728 -0.098408185
0001d0 fa 09 fc 3d 63 1f d3 3b 9c 68 22 be 5f 3c fc 3d
       0.123065904 0.0064429506 -0.15860218 0.12316202
0001e0 f9 41 18 3d 90 76 d6 bc d9 e8 03 3d 5e 0f c2 3d
       0.03717229 -0.026179582 0.032204483 0.09475587
0001f0 b9 ec e8 3c 68 02 2d bc 89 7e fd 3d 70 45 c6 bc
       0.02843319 -0.010559656 0.1237765 -0.024203032
000200 96 58 aa bb 02 b1 64 bd 24 79 1d be 8d 2f 10 3e
       -0.0051985485 -0.05583287 -0.15378243 0.14080639
000210 5e 22 0a bd 3f f9 1a be 6d c7 89 3c 6d 7e 0e be
       -0.03372418 -0.15134142 0.016818726 -0.13915415
000220 d6 12 0f bd b9 ff 02 be a2 30 a2 bc 49 ed e0 3d
       -0.034930073 -0.12792863 -0.01979858 0.109827586
000230 c8 4a 64 3d 41 7d 72 bd 24 f8 aa 3d 42 ad 0a be
       0.05573538 -0.059201483 0.0834811 -0.13542655
000240 31 69 0a 3d 9b 97 fc 3d 3d eb 74 bc 9e af 5a 3d
       0.033791725 0.12333604 -0.014948663 0.053390138
000250 32 fc df bd dd 55 e5 3d 3d e0 ad 3d ba bf fe 3c
       -0.10936774 0.11198018 0.08490036 0.031097282
000260 93 96 3e bd 85 f2 2f 3c 7e 05 03 be 85 c0 85 bc
       -0.046530318 0.0107389735 -0.12795064 -0.016327152
000270 27 e4 04 be c3 6d ee bd 59 37 eb bc 95 da 08 be
       -0.12977658 -0.11642029 -0.028712915 -0.13364632
000280 2b 74 07 bd 49 83 2a be 0b 2f 00 3c ca d7 cc 3c
       -0.03306977 -0.16651644 0.007823716 0.02500524
000290 66 81 17 be b5 b4 0f 3d 7a e4 fa bd a4 2f 1e 3d
       -0.14795455 0.035084445 -0.1225061 0.038619652
0002a0 e1 bb e5 bd a6 b4 4e bc 7d da 23 3e a5 39 7f 3d
       -0.11217476 -0.012616312 0.16001315 0.062310833
0002b0 05 1b 24 3d d0 b0 c9 3d 89 25 f1 bd 1c 59 f7 bc
       0.04006483 0.098481774 -0.117747374 -0.030193858
0002c0 03 c6 83 bd b4 c0 dd 3d d5 ff 0f 3e 93 d2 b2 3c
       -0.06434252 0.10827771 0.14062436 0.021828925
0002d0 02 7f a6 3d b2 cf 14 bd 9d 90 e5 bd da df b4 bd
       0.081296936 -0.036330886 -0.112092234 -0.08831759
0002e0 57 39 b2 bc ad e8 e7 3b c9 c6 26 bc a1 ff da 3d
       -0.021755857 0.0070772977 -0.01017923 0.106932886
0002f0 88 ac b7 3d 43 df a1 3c fa bd 19 be 31 af 82 3c
       0.089684546 0.01975978 -0.15013877 0.015952678
000300 f1 79 3d 3c aa cd e2 bd 51 64 56 3c 62 8b 1a 3e
       0.011564718 -0.110743836 0.013085441 0.15092233
000310 f2 a6 30 bc 2c 6f 07 3c 3d 64 36 bb dd 6e 86 3d
       -0.01078199 0.0082662515 -0.0027830743 0.06564114
000320 4a 2a fe bd 3e 8b 6e bd 01 8d c6 3d d3 b2 0d 3e
       -0.1241041 -0.05823826 0.09694863 0.13837747
000330 97 92 85 3d 94 cd 0e be 5e 03 41 bc 55 20 b6 bd
       0.065221004 -0.1394561 -0.011780588 -0.088928856
000340 6a 37 5a bd 51 cc d7 bb 9b 07 c0 3d 1d 84 29 bc
       -0.053275503 -0.0065856357 0.09376451 -0.01034644
000350 be 3d b4 3d d5 9b 33 3e c8 bb b5 bd 71 f5 d0 3d
       0.08800839 0.17539914 -0.08873707 0.10203064
000360 c7 c0 01 3d 16 b0 e4 3d e8 56 3f bd 83 2c 19 3c
       0.031677987 0.11166398 -0.04671374 0.009348991
000370 e2 27 68 bd 3e d9 f5 3d bd ab af bd b7 be 5f bc
       -0.05667866 0.12004326 -0.08577678 -0.01365631
000380 f3 94 c7 3c 92 19 48 3d 00 33 1e be 06 3e c5 3d
       0.024363017 0.04885251 -0.15449142 0.09630971
000390 a0 0b dd bc 93 11 22 be c1 1d 52 3d f5 3b 8a 3d
       -0.026983082 -0.15827017 0.051297907 0.06749717
0003a0 59 29 5a bd 75 cd 69 3c 7c d0 b6 3d 23 85 94 bd
       -0.05326209 0.014270176 0.08926484 -0.07251956
0003b0 c2 2a d9 bd a0 5f c2 3d 30 fe 15 3e 15 f2 2a 3e
       -0.106038585 0.09490895 0.14647746 0.1669391
0003c0 67 77 48 3d 9a 28 28 3e c0 10 c5 bd 26 3d 23 be
       0.048941996 0.16421738 -0.096223354 -0.15941295
0003d0 d2 d8 93 bc 0e 54 ae bd 3b 20 d5 bd f2 63 a0 3d
       -0.018047724 -0.08512126 -0.10406538 0.07831563
0003e0 eb 5f f3 3d 7b 19 e6 3c c1 e2 97 3d 2d c9 a2 ba
       0.11883529 0.028088322 0.07416297 -0.0012419574
0003f0 ff 83 e9 3d e9 b7 4d ba f1 4b 17 bc e1 08 d2 3d
       0.114021294 -0.0007847534 -0.009234414 0.102556

fc2.bias f4 [2]
000000 2e 85 ad bd f5 c0 88 bc
       -0.08472668 -0.016693572

fc_optimal.weight f4 [1, 128]
000000 52 dc 67 bc a1 2c 84 3c 98 b8 f6 3c 20 85 97 3d
       -0.01415165 0.016134562 0.030117318 0.073984385
000010 43 c5 7f 3c 86 1b 13 bd 9f 03 89 3d 19 37 62 3d
       0.015610996 -0.03591492 0.06690144 0.055228326
000020 53 e3 db 3c e5 b7 59 bd 11 0f 8c bd 7d 16 25 bd
       0.026841795 -0.05315389 -0.06838811 -0.04030465
000030 1c cf b0 bc 3e a9 b2 3d 5c f5 0d 3d 54 5f ad bd
       -0.021583132 0.08723687 0.03465782 -0.08465448
000040 75 87 6a bc 49 66 82 3d 7e 8e 0f bd 7e 89 2e bd
       -0.014314522 0.063671656 -0.035048 -0.04261159
000050 f6 95 40 3d db 40 06 bc 6f c3 a7 bd 5c 3a ab bd
       0.047018014 -0.008194174 -0.08191573 -0.083607405
000060 46 38 5c bc 4c 97 b1 bc b1 8e af bb 72 58 d8 bc
       -0.013441151 -0.02167859 -0.0053575863 -0.026409362
000070 82 ee 52 3c 14 7f 4c 3d e9 08 8a bd f5 49 b1 bd
       0.0128742475 0.04992588 -0.06739981 -0.08656684
000080 43 e7 9d 3d d8 e6 87 3d 7d 4c a5 bd fa 19 aa bd
       0.07710125 0.06635827 -0.080712296 -0.08305736
000090 b3 f1 93 bd 1e a8 b0 3c a9 a2 61 3b f5 01 50 3a
       -0.07223835 0.02156454 0.0034429228 0.0007934862
0000a0 1e b2 2c 3c 62 3d fb bc 07 4c 71 bc 66 0c 46 bd
       0.010540513 -0.030668918 -0.014727599 -0.048351668
0000b0 df 3e d4 3b 07 f5 9b bd 4e 5f 67 3d ae 26 1b bd
       0.0064772214 -0.07615095 0.056487374 -0.037878685
0000c0 99 ed 64 3d 4b a8 3b bd 33 0e 81 bd 38 c0 a7 3d
       0.055890653 -0.045814794 -0.063015364 0.0819096
0000d0 24 68 50 b9 49 28 a2 3c 37 b7 dc 3b c7 25 b6 3d
       -0.00019875221 0.0197946 0.006735708 0.08893924
0000e0 83 ef 12 3d 26 1b 86 3d 9c 1e a7 3d 7e 2e 30 3d
       0.035872947 0.06548147 0.08160135 0.04301309
0000f0 9f 0f 42 3d 18 54 36 3d 4e 86 95 bd 79 68 25 bd
       0.04737818 0.04451379 -0.07301007 -0.040382836
000100 72 1d cd bc 63 69 88 3d 87 8e 29 bc ee 9f ff 3c
       -0.025038455 0.06660726 -0.010348923 0.03120419
000110 b6 78 6d bd 95 6f e2 3c 56 25 46 bd e0 65 a2 bb
       -0.057976447 0.027641097 -0.04837545 -0.004955992
000120 83 5b 1e bd 50 ee d0 3b 57 e1 b1 bd 52 21 a6 bc
       -0.03866149 0.0063760653 -0.08685558 -0.02027956
000130 68 29 17 bc 73 fd 17 bc 8f ef 91 3d 04 96 b4 3d
       -0.009226181 -0.009276736 0.0712577 0.08817676
000140 01 99 bd bc 26 6c 11 3d 41 b3 60 bd 8c 2a 34 bd
       -0.023144247 0.03550353 -0.05485845 -0.04398589
000150 8a dc 8f bd f5 d2 9c bd 88 24 96 bd fb fa 6d 3c
       -0.07024486 -0.07657424 -0.073311865 0.01452517
000160 0b ec 40 3c 05 77 2f bd 5a 34 47 3d e3 71 01 3d
       0.011775027 -0.042838115 0.04863391 0.03160275
000170 23 8c c9 3c 79 f1 ac 3d 0f 0e 92 3b 3c 5b 8e bd
       0.024602955 0.08444495 0.0044572423 -0.06950995
000180 18 e6 c2 3c 0e e0 b4 bd aa 52 0c 3d 77 05 81 bd
       0.023791358 -0.088317975 0.034258522 -0.062998705
000190 8b ad 3b bc 1a db 52 bb 26 90 61 3d c2 9f 5e bd
       -0.01145495 -0.0032174052 0.05506911 -0.054351576
0001a0 1f 51 a0 3d 25 3c 9c bc 95 04 c7 bb 63 0f 14 3d
       0.078279726 -0.019071648 -0.0060735443 0.036147486
0001b0 10 5c 99 3c 31 c7 4a 3d b4 87 7b 3b 0a 55 37 3d
       0.018720657 0.04950637 0.0038380446 0.044758834
0001c0 8f 7c 0e 3d 63 a2 9e 3d 0f 3b 87 3d ff 17 94 3d
       0.034786757 0.077458166 0.066030614 0.072311394
0001d0 a9 f7 c8 3c 2e fa ae bd d9 60 b6 3d 0f 37 66 bd
       0.024532156 -0.08543812 0.08905191 -0.05620485
0001e0 13 14 ff 3c ef ef b4 3d 13 be 49 3d 62 47 d7 bc
       0.031137502 0.08834826 0.049253535 -0.026279155
0001f0 f9 fe 20 bd 40 89 16 bd ee 82 98 3d 8b b5 8d 3d
       -0.03930566 -0.036751986 0.07446848 0.06919392

exp_avg f4 [128, 3]
000000 ed d3 84 41 06 8f 2b 41 8e 2c 97 41 4f b5 c9 c1
       16.60348 10.722418 18.896755 -25.21353
000010 3f 26 a6 c1 7b 4c 9d c1 ea 18 27 c2 a9 b0 10 c2
       -20.768675 -19.662344 -41.77433 -36.17252
000020 41 4b f4 c1 62 73 cd c2 83 68 97 c2 8c 63 d1 c2
       -30.536745 -102.72536 -75.704124 -104.69443
000030 0c 81 15 c1 ad db 07 c0 ff fc ac c1 aa 3c 3c 42
       -9.344006 -2.122783 -21.623533 47.059242
000040 de ff ff 41 0b fa 66 42 69 e5 c2 c2 93 09 93 c2
       31.999935 57.744183 -97.44807 -73.5187
000050 fc 85 c0 c2 9f a1 b0 c2 74 58 97 c2 6e 4e 54 c2
       -96.26169 -88.31567 -75.67276 -53.07659
000060 66 40 04 c2 68 13 c0 c1 64 f3 1c c2 b3 c0 63 42
       -33.06289 -24.009476 -39.237686 56.938183
000070 51 89 0d 42 4b 53 6e 42 99 05 b4 42 bf 6e 8c 42
       35.384098 59.58134 90.01093 70.2163
000080 e3 62 3e 42 23 b7 2f 42 5f 98 07 42 a8 da df 41
       47.59657 43.928844 33.8988 27.981766
000090 25 86 47 42 08 d1 49 42 98 08 af 40 42 27 cb c2
       49.881 50.454132 5.469799 -101.576675
0000a0 45 9a 9d c2 af a0 5f c2 56 0e 9f c1 5f 72 23 c1
       -78.80131 -55.906918 -19.882 -10.215423
0000b0 84 0c a1 c1 47 da c0 42 c7 a0 6d 42 2f 0a ee 42
       -20.131111 96.42632 59.40701 119.01989
0000c0 5d 10 05 42 f0 02 00 42 08 8e 06 41 15 90 f0 c1
       33.26598 32.00287 8.409676 -30.070353
0000d0 ab 4f 60 c1 23 d3 80 c1 cc 14 ac 41 51 78 25 41
       -14.01945 -16.103094 21.510155 10.341874
0000e0 d1 ea 73 41 c1 af 6e 42 2e 72 3f 42 88 c9 3f 42
       15.244828 59.671635 47.861504 47.946808
0000f0 df b5 8c c2 a9 6c 69 c2 5d 2d 18 c2 ec e8 9d 41
       -70.35522 -58.356113 -38.0443 19.738731
000100 1e c2 ac 41 b6 c9 b7 be a8 76 92 42 c8 55 43 42
       21.594784 -0.3589608 73.23175 48.83377
000110 92 0e 85 42 23 1b ce 42 6e 71 95 42 8b a0 ab 42
       66.52846 103.053 74.72154 85.81356
000120 47 3f bd 41 7e f3 9d 41 f0 7a 3a 41 a4 7d 0f 42
       23.655897 19.743893 11.655014 35.872696
000130 16 6f f4 41 32 4d 8c 41 42 e2 3b 40 b8 47 e3 bf
       30.554241 17.537693 2.9356847 -1.7756262
000140 07 06 43 41 bd b6 ad 41 cb ed 61 41 2d c2 90 41
       12.1889715 21.714228 14.120555 18.094812
000150 f2 98 19 c1 69 40 03 c1 90 47 3b 3e 30 0a 9c c2
       -9.59984 -8.203225 0.18289018 -78.0199
000160 89 72 83 c2 be ef 43 c2 b9 3c e7 42 7e 3b c3 42
       -65.7237 -48.984123 115.6186 97.616196
000170 86 f5 8d 42 2a a1 e1 42 5d c0 a0 42 b0 f7 03 43
       70.97954 112.81477 80.37571 131.96753
000180 bf 13 f7 c2 55 b5 c3 c2 1d 9f c0 c2 84 27 03 c3
       -123.53857 -97.854164 -96.31077 -131.15436
000190 d9 af ed c2 6b 80 5f c2 48 0a d4 42 b3 67 a2 42
       -118.84345 -55.87541 106.02008 81.20254
0001a0 fa ae 99 42 48 8e e0 42 ab fd a8 42 60 6b ba 42
       76.84175 112.27789 84.495445 93.20972
0001b0 c8 75 cc 42 e3 d5 8f 42 70 fd dc 42 2b 85 38 c2
       102.23004 71.91775 110.494995 -46.130047
0001c0 50 23 2b c2 b9 b0 b8 c1 68 ad 2d c1 a1 6c 76 c1
       -42.784485 -23.08629 -10.8548355 -15.401521
0001d0 f6 07 0b 41 1b ff 34 c0 5b 01 37 c0 c3 d2 13 be
       8.689444 -2.8280704 -2.8594577 -0.14435868
0001e0 bd a1 09 c2 d5 e6 20 c2 b1 53 48 41 c6 f1 64 41
       -34.407948 -40.22542 12.520432 14.309027
0001f0 18 44 d8 40 99 f6 bb 40 85 61 f5 41 76 7a fe 41
       6.758312 5.8738523 30.672617 31.809795
000200 79 43 af 40 84 ae 27 42 e7 05 d2 41 14 39 30 42
       5.4769864 41.920425 26.252882 44.05574
000210 bc ad 30 41 8d 92 71 41 6a e6 15 c1 df b0 41 42
       11.042416 15.098279 -9.368753 48.422726
000220 f5 d5 fa 41 5e 86 2f 41 2b 49 90 c2 1b 95 5b c2
       31.354471 10.9703045 -72.14291 -54.89561
000230 b0 a5 a0 c2 48 60 16 42 1b 20 d6 41 ed 60 8f 41
       -80.32361 37.594025 26.765676 17.922327
000240 a4 cf 1c c2 9e dd cf c1 c3 fa b1 c1 78 83 92 42
       -39.202774 -25.983212 -22.247442 73.256775
000250 28 a3 7a 42 aa 4c 5d 42 e1 f9 c3 42 37 96 9d 42
       62.659332 55.324867 97.988045 78.79339
000260 5b c5 a2 42 4e f4 9f c2 bb 75 6c c2 88 e1 5c c2
       81.38546 -79.97716 -59.11497 -55.220245
000270 7c 03 14 c0 1e 1b b1 bf b6 43 1c c0 e1 49 2b c2
       -2.3127127 -1.38364 -2.4416327 -42.822147
000280 15 42 25 c2 18 07 1e c1 53 42 31 3f c5 d0 1f 40
       -41.314533 -9.876732 0.6924183 2.4971173
000290 0c 4e 24 c1 7f 29 52 c2 19 44 e7 c1 53 b2 42 c2
       -10.269054 -52.540524 -28.90825 -48.674145
0002a0 16 62 cb c1 89 75 91 c1 8b d9 74 c0 0a b8 bf c2
       -25.422894 -18.18239 -3.8257778 -95.85945
0002b0 6b ca 9b c2 3f 5a 79 c2 bc 18 cc c2 f8 8a 8a c2
       -77.89535 -62.33813 -102.04831 -69.27142
0002c0 6a 0e e9 c2 61 18 6d c2 3c 5a 3d c2 a1 02 13 c2
       -116.52815 -59.273808 -47.33812 -36.752567
0002d0 1c 39 60 c2 10 80 22 c2 31 0b 4e c2 c8 9c bf c1
       -56.05577 -40.62506 -51.51093 -23.951553
0002e0 e2 59 7f c1 bf 02 48 c0 26 e7 a2 42 93 ca 61 42
       -15.959444 -3.1251676 81.45146 56.447826
0002f0 7c 20 99 42 3f 2c 85 42 98 bd 62 42 a5 9a 28 42
       76.563446 66.58642 56.68515 42.15102
000300 c6 66 59 42 2a c6 45 42 18 2a ba 41 b4 93 f8 c2
       54.350365 49.44352 23.270554 -124.28848
000310 c6 6c d9 c2 15 73 89 c2 26 47 6e 41 c7 4e 45 41
       -108.71245 -68.72477 14.89237 12.331733
000320 ce b4 22 41 a1 79 80 c1 5b 29 f7 c0 9c 52 26 c1
       10.169142 -16.05939 -7.7237983 -10.395168
000330 68 08 51 42 b1 19 0b 42 8f 86 db 41 8d c2 0d c2
       52.25821 34.77509 27.440702 -35.43999
000340 77 6c cb c1 e5 dd f5 c1 d0 d5 9e 42 16 6d 85 42
       -25.427961 -30.733347 79.4176 66.71306
000350 94 3f 61 42 8a cc 92 c0 3f da f3 c0 94 2a 39 41
       56.312088 -4.587468 -7.6203914 11.572895
000360 ce 20 91 42 6d af 77 42 84 a5 46 42 b5 d4 8e c1
       72.56407 61.921314 49.661636 -17.85386
000370 67 9b a7 c1 fc 0f b1 40 88 7b c4 42 a9 e2 95 42
       -20.95088 5.533201 98.24127 74.942696
000380 f1 33 92 42 0d 53 09 42 ad e8 02 42 89 1b 2e 41
       73.10145 34.331104 32.727222 10.881722
000390 d5 ed 0e 42 87 40 18 42 7f b7 ee bf 76 9c ba 40
       35.732258 38.063015 -1.8649749 5.831599
0003a0 ee 01 c8 bf a3 a8 b5 41 56 b7 f6 c2 64 8a cc c2
       -1.5625589 22.707342 -123.35808 -102.270294
0003b0 7e 8d ad c2 d0 19 8f c2 eb 58 44 c2 07 53 0f c2
       -86.77635 -71.550415 -49.086834 -35.83108
0003c0 1b 6f a9 41 10 45 81 41 85 46 4e 41 bb 0c 32 c2
       21.17925 16.158722 12.892217 -44.512432
0003d0 35 87 06 c2 a4 74 07 c2 f8 8f ad 42 9b 4e 90 42
       -33.63204 -33.863907 86.78119 72.15353
0003e0 b9 e7 88 42 df 76 96 42 e1 55 79 42 0c 85 34 42
       68.45258 75.23217 62.333866 45.12993
0003f0 90 f9 93 42 06 90 5a 42 69 be 4d 42 e5 3e cc 42
       73.98743 54.640648 51.435947 102.12284

exp_avg_sq f4 [128, 3]
000000 b2 d1 f7 45 27 72 89 45 64 fa a4 45 3b 24 3e 46
       7930.212 4398.269 5279.299 12169.058
000010 e9 94 e7 45 d4 d1 fc 45 8b 21 04 47 96 b6 a8 46
       7410.614 8090.2285 33825.543 21595.293
000020 e7 07 af 46 c8 61 57 48 b3 ab 01 48 f3 48 1e 48
       22403.951 220551.12 132782.8 162083.8
000030 5b f0 f3 45 3a cf 8c 45 56 fa 97 45 7f 0e 34 47
       7806.0444 4505.9033 4863.292 46094.496
000040 24 30 cc 46 89 5f 26 47 43 28 3f 48 4a 3b e2 47
       26136.07 42591.535 195745.05 115830.58
000050 7d 66 11 48 e1 87 f6 47 31 78 95 47 15 72 96 47
       148889.95 126223.76 76528.38 77028.164
000060 3d 0d 02 47 49 b4 aa 46 69 e4 a3 46 be 98 8a 47
       33293.24 21850.143 20978.205 70961.484
000070 08 c3 05 47 4f a2 43 47 ad 9d 05 48 78 57 94 47
       34243.03 50082.31 136822.7 75950.94
000080 24 c5 63 47 47 ae 2d 47 6a fd c9 46 d7 8f a1 46
       58309.14 44462.277 25854.707 20679.92
000090 0d 64 8b 46 b9 a1 22 46 4a 73 52 46 ac 1b 23 48
       17842.025 10408.431 13468.822 167022.69
0000a0 ed 9b 9f 47 64 5d bf 47 54 25 1a 46 67 c9 81 45
       81719.85 97978.78 9865.332 4153.1753
0000b0 8d 66 ad 45 5b 5d 6c 48 0e de 02 48 fa 10 23 48
       5548.819 242037.42 134008.22 166979.9
0000c0 35 ce 18 46 73 52 b6 45 fb 44 c9 45 0c 2b 84 46
       9779.552 5834.306 6440.6226 16917.523
0000d0 82 1b 6c 45 99 15 d9 45 34 ea 66 46 67 3e c5 45
       3777.7192 6946.6997 14778.551 6311.8003
0000e0 a9 ab 8c 45 09 a8 96 47 3b 80 48 47 6b ba 1d 47
       4501.4575 77136.07 51328.23 40378.418
0000f0 55 36 9d 47 36 90 32 47 b6 57 2e 47 bb ab 27 45
       80492.664 45712.21 44631.71 2682.7332
000100 5b cc de 44 0a c6 f9 44 ba 2a e5 47 5c aa 5a 47
       1782.3861 1998.1887 117333.45 55978.36
000110 18 c1 9f 47 a8 95 5b 48 7e 3d ec 47 78 cc 09 48
       81794.19 224854.62 120954.984 141105.88
000120 c7 4b cf 45 b8 72 65 45 cb 58 7b 45 98 9b 95 46
       6633.472 3671.17 4021.5496 19149.797
000130 cf 65 36 46 22 71 12 46 eb e9 0e 44 71 3b 8d 43
       11673.452 9372.283 571.65497 282.4644
000140 41 af f5 43 c2 78 27 46 16 81 aa 45 cf a1 ab 45
       491.36917 10718.189 5456.1357 5492.226
000150 2d 44 0d 45 56 67 7f 44 0e 37 5a 44 13 89 c5 47
       2260.261 1021.6146 872.8602 101138.15
000160 47 aa 70 47 c8 51 6c 47 59 93 47 48 48 a6 01 48
       61610.277 60497.78 204365.39 132761.12
000170 6a 0f d5 47 f9 50 80 48 9b c0 11 48 cd 19 6b 48
       109086.83 262791.78 149250.42 240743.2
000180 c4 2b 8d 48 16 76 28 48 88 a4 33 48 9a 55 43 48
       289118.12 172504.34 183954.12 200022.4
000190 de cc f8 47 b1 a0 d6 47 99 7c 4a 48 c4 b0 e0 47
       127385.734 109889.38 207346.39 115041.53
0001a0 32 17 f0 47 2f 77 77 48 5e 19 0c 48 74 12 1e 48
       122926.39 253404.73 143461.47 161865.81
0001b0 5a 00 61 48 3d ec 02 48 23 66 26 48 b4 9d ab 46
       230401.4 134064.95 170392.55 21966.852
0001c0 2b 3f 63 46 c8 b0 88 46 aa e1 da 43 06 a9 b1 43
       14543.792 17496.39 437.763 355.3205
0001d0 dd 42 cb 43 f1 d9 43 41 e7 82 1f 41 4a cb b3 40
       406.52237 12.240708 9.969459 5.6185656
0001e0 86 2b c7 45 21 e2 81 45 d0 32 ab 45 56 28 95 45
       6373.4404 4156.266 5478.3516 4773.042
0001f0 b0 db bf 44 d2 3c 83 44 b3 d1 0a 46 32 5d b6 45
       1534.8652 1049.9006 8884.425 5835.6494
000200 00 60 cb 45 22 16 54 47 d1 64 e5 46 db 84 f2 46
       6508.0 54294.133 29362.408 31042.428
000210 18 4d b1 44 40 47 95 44 f2 1d cd 43 7b 0b 21 47
       1418.4092 1194.2266 410.23395 41227.48
000220 a7 c1 52 46 c1 0a 43 46 d3 e1 0d 48 c4 f5 b4 47
       13488.413 12482.688 145287.3 92651.53
000230 d9 4d cb 47 25 d4 b3 46 ca eb 1a 46 7b 6a 1f 46
       104091.695 23018.072 9914.947 10202.62
000240 5c 7f 41 47 3d 9c dd 46 1b 0a 4f 46 73 f1 a8 47
       49535.36 28366.12 13250.526 86498.9
000250 1a 83 49 47 65 e1 89 47 aa ec 3a 48 91 99 e1 47
       51587.1 70594.79 191410.66 115507.13
000260 65 53 ff 47 98 a4 fd 47 91 ec 8d 47 cf 94 74 47
       130726.79 129865.19 72665.13 62612.81
000270 9f 36 71 42 53 38 2b 42 14 d7 9c 41 cc 3b 83 46
       60.30334 42.805004 19.605019 16797.898
000280 63 0c 19 46 e3 fc 37 46 e2 84 db 44 d3 c5 92 44
       9795.097 11775.222 1756.1526 1174.182
000290 70 d9 9a 44 62 1a 61 47 94 02 95 46 85 3a 36 47
       1238.7949 57626.383 19073.29 46650.52
0002a0 84 13 0c 46 5e 1e 32 45 b9 6c 4c 45 1b e5 1d 48
       8964.879 2849.898 3270.7952 161684.42
0002b0 b8 96 c6 47 5e 01 9e 47 37 66 83 48 20 f4 19 48
       101677.44 80898.734 269105.72 157648.5
0002c0 8c ad 30 48 e3 90 49 47 89 73 dd 46 47 16 f9 46
       180918.19 51600.887 28345.768 31883.139
0002d0 51 da 8a 47 a4 b0 22 47 a1 12 2d 47 2e 54 e6 45
       71092.63 41648.64 44306.63 7370.5225
0002e0 56 91 f4 44 5c cb fb 44 85 48 1c 48 ad bc b8 47
       1956.5417 2014.355 160034.08 94585.35
0002f0 d7 be ab 47 35 86 80 47 05 4b 1d 47 5f 0c 29 47
       87933.68 65804.414 40267.02 43276.37
000300 a8 de fd 46 c6 48 9d 46 44 14 a0 46 08 17 50 48
       32495.328 20132.387 20490.133 213084.12
000310 a0 28 01 48 bb 09 01 48 5b f0 9a 45 20 8b 51 45
       132258.5 132134.92 4958.0444 3352.6953
000320 8e 1d 11 45 65 e8 8a 45 b8 74 8b 44 a6 62 de 44
       2321.8472 4445.0493 1115.6475 1779.0828
000330 37 7d 6d 47 2c 52 e2 46 bf be 9d 46 61 1a e1 46
       60797.215 28969.086 20191.373 28813.19
000340 ce 0b 82 46 1f 92 79 46 c9 ed b8 47 2f ad 59 47
       16645.902 15972.53 94683.57 55725.184
000350 cb d2 8f 47 c6 18 86 44 aa b4 37 44 7d b9 45 44
       73637.586 1072.7742 734.8229 790.89825
000360 32 e2 8a 47 5f 7a 34 47 a0 ff 44 47 96 1b b2 44
       71108.39 46202.37 50431.625 1424.862
000370 47 a6 5a 44 53 ed 9e 44 62 c8 6a 48 38 f2 14 48
       874.5981 1271.4164 240417.53 152520.88
000380 e3 61 cc 47 cb 63 57 46 d7 bb eb 45 96 72 21 46
       104643.77 13784.948 7543.48 10332.646
000390 13 c6 9d 45 e9 ed 57 45 71 cd 44 45 ae 2e 82 45
       5048.7593 3454.8694 3148.84 4165.835
0003a0 5f a3 38 45 a9 17 3c 45 41 7b 6c 48 5c 2e 0f 48
       2954.2107 3009.4788 242157.02 146617.44
0003b0 42 f7 1d 48 85 e9 c0 47 dd 37 2a 47 81 9b 1e 47
       161757.03 98771.04 43575.863 40603.504
0003c0 04 cb fc 45 92 1e 96 45 bd 54 4c 45 33 2e 2e 47
       8089.377 4803.8213 3269.2961 44590.2
0003d0 3b 7d d6 46 03 66 a5 46 59 46 fa 47 18 c6 96 47
       27454.615 21171.006 128140.695 77196.19
0003e0 60 2f be 47 45 66 a9 47 07 ff 45 47 2d 25 49 47
       97374.75 86732.54 50687.027 51493.176
0003f0 c2 13 b8 47 66 77 26 47 9b c4 85 47 4b 0b 65 48
       94247.516 42615.4 68489.21 234541.17

exp_avg f4 [128]
000000 ac 75 e1 42 b3 52 05 c3 82 34 79 c3 60 0c f7 c3
       112.72983 -133.32304 -249.20511 -494.09668
000010 55 76 09 c3 b4 3f 55 43 f3 33 00 c4 6c e0 d5 c3
       -137.46223 213.24884 -512.8117 -427.7533
000020 1f 8e 52 c3 1a c3 af 43 2b ea ed 43 7e 71 a2 43
       -210.55516 351.52423 475.82944 324.88666
000030 08 58 06 43 ad 58 18 c4 9d 06 2d c3 86 a9 1f 44
       134.34387 -609.38556 -173.02583 638.6488
000040 5a b6 cc 42 98 c5 9d c3 ef d8 4f 43 32 f5 9e 43
       102.356155 -315.5437 207.8474 317.9156
000050 73 b9 b9 c3 05 cc 94 42 c4 72 12 44 cb fd 20 44
       -371.44882 74.398476 585.7932 643.9655
000060 0f e9 a2 42 d0 98 20 43 09 70 50 41 b3 7d 28 43
       81.45519 160.59692 13.027352 168.49101
000070 e0 89 f5 c2 e9 61 cb c3 a6 fa e8 43 83 82 0c 44
       -122.76929 -406.76492 465.9582 562.03925
000080 f0 af 19 c4 76 ca 01 c4 f4 ca 0c 44 13 be 1d 44
       -614.749 -519.16345 563.17114 630.9699
000090 b7 8f 04 44 44 b1 f3 c2 57 51 f3 c1 58 c8 31 41
       530.24554 -121.84622 -30.414717 11.111412
0000a0 14 47 6f c2 25 fa 2a 43 cd a1 fc 42 3e ce 9d 43
       -59.819412 170.97713 126.31602 315.61127
0000b0 f8 c2 38 c2 d9 3b ff 43 a9 df da c3 af 52 75 43
       -46.1904 510.46756 -437.74734 245.32298
0000c0 9a 44 b9 c3 d6 26 ac 43 76 0c ff 43 7d 9b 00 c4
       -370.53595 344.3034 510.09735 -514.4295
0000d0 37 e5 c5 41 14 ea 01 c3 52 48 a4 c2 3b 53 08 c4
       24.736921 -129.91437 -82.14125 -545.3005
0000e0 20 7f 5c c3 62 59 c8 c3 5c 33 22 c4 e2 26 75 c3
       -220.49658 -400.6983 -648.8025 -245.15189
0000f0 b0 79 8f c3 68 5b 4b c3 cb bb ee 43 ca 0a 93 43
       -286.95068 -203.35706 477.46713 294.0843
000100 fd 72 32 43 4c 2d 00 c4 39 83 86 42 45 15 f5 c2
       178.44917 -512.70776 67.256294 -122.54154
000110 c8 55 c0 43 db 04 53 c3 f2 12 a8 43 fe 15 83 42
       384.67017 -211.01897 336.148 65.54295
000120 f4 04 5b 43 01 4c fc c1 4d 12 08 44 0c 97 29 43
       219.01935 -31.537111 544.28595 169.59003
000130 0b 14 83 42 52 1a 3d 42 1a ed 06 c4 fd 0d 05 c4
       65.53915 47.275703 -539.7047 -532.21857
000140 11 be e2 42 db 92 7e c3 a6 d5 c6 43 a5 ba a2 43
       113.37122 -254.57365 397.66913 325.45816
000150 72 ba e9 43 8f 2a 13 44 52 aa cd 43 65 bd d5 c2
       467.4566 588.665 411.33063 -106.86991
000160 7b b8 be c2 f2 30 a3 43 5d cf b5 c3 ff eb 80 c3
       -95.36031 326.3824 -363.62003 -257.84372
000170 79 1c 32 c3 2b 95 1a c4 a8 8a 82 c2 ff 6d c3 43
       -178.11122 -618.33075 -65.27081 390.85934
000180 9a 30 09 c3 ca f9 27 44 15 36 80 c3 bc a4 cf 43
       -137.18985 671.90295 -256.42252 415.287
000190 02 1b 3e 42 6b 9f 55 40 a2 d8 ae c3 1e 6d db 43
       47.526375 3.337855 -349.69244 438.85248
0001a0 af 45 02 c4 73 69 25 43 b9 64 57 42 8f ae 71 c3
       -521.0888 165.41191 53.848362 -241.68187
0001b0 d6 1a 0c c3 0f 51 b0 c3 3c b8 42 41 27 17 a7 c3
       -140.10483 -352.63327 12.169979 -334.18088
0001c0 ba 75 57 c3 c9 f5 17 c4 2b 65 ed c3 ba 67 16 c4
       -215.45987 -607.8404 -474.79037 -601.6207
0001d0 80 16 07 c3 fe 4d 1e 44 8e 2c 2d c4 84 26 bb 43
       -135.08789 633.2186 -692.69617 374.3009
0001e0 82 1e 2e c3 67 d1 27 c4 0d 49 b1 c3 4d d7 47 43
       -174.11917 -671.2719 -354.5707 199.84102
0001f0 2e 00 8f 43 60 09 82 43 39 38 f6 c3 2d d8 b0 c3
       286.0014 260.07324 -492.43924 -353.68887

exp_avg_sq f4 [128]
000000 79 94 73 48 ad 36 86 48 2a 4f 58 49 25 a3 a3 4a
       249425.89 274869.4 886002.6 5.3620665e+06
000010 a6 a7 69 48 3b 71 8d 49 d5 08 9e 4a d6 90 49 4a
       239262.6 1.1586954e+06 5.1784745e+06 3.3024535e+06
000020 c2 0f 2f 49 51 58 2b 4a 6f 59 96 4a 23 a0 ce 49
       717052.1 2.8073162e+06 4.9266475e+06 1.6926764e+06
000030 fd 3c 04 49 1e 76 e9 4a ea 00 27 49 fd 77 ed 4a
       541647.8 7.650063e+06 684046.6 7.7813745e+06
000040 f3 06 80 48 85 47 1d 4a 4c 6f 44 49 bd 81 d6 49
       262199.6 2.5768652e+06 804596.75 1.7572396e+06
000050 65 8b 16 4a 20 ab 85 47 94 77 b4 4a 48 80 f4 4a
       2.4665212e+06 68438.25 5.913546e+06 8.011812e+06
000060 0d dc 61 48 c9 6b 10 49 f5 e9 e9 46 ba 5c 05 49
       231280.2 591548.56 29940.979 546251.6
000070 43 b3 19 48 d1 81 30 4a 87 cf 90 4a 7b 36 c7 4a
       157389.05 2.8918922e+06 4.7451555e+06 6.5278055e+06
000080 e8 ce e5 4a 27 96 a1 4a e6 50 c5 4a 04 79 e9 4a
       7.530356e+06 5.2948675e+06 6.465651e+06 7.650434e+06
000090 7c e5 b9 4a 90 56 d3 48 c1 19 27 46 64 b2 b8 44
       6.091454e+06 432820.5 10694.438 1477.5747
0000a0 41 b3 39 48 1a d9 09 49 ff 83 4f 48 00 75 c7 49
       190157.02 564625.6 212495.98 1.633952e+06
0000b0 be f1 00 47 e4 8f 96 4a 38 ae 41 4a 11 9b ae 49
       33009.742 4.933618e+06 3.173262e+06 1.4303701e+06
0000c0 f8 de 10 4a fd de 03 4a 8f 49 88 4a 4c bb a5 4a
       2.373566e+06 2.1605752e+06 4.4658635e+06 5.430694e+06
0000d0 91 3f 29 45 6b 5d eb 48 50 44 27 47 09 57 99 4a
       2707.973 482027.34 42820.312 5.0246445e+06
0000e0 34 e5 89 49 0a e0 4a 4a ad 8d df 4a 11 29 c9 49
       1.1296385e+06 3.3239065e+06 7.3253985e+06 1.6479061e+06
0000f0 1f ca e6 49 1e 55 81 49 ff f1 9a 4a fb e5 e3 49
       1.8906279e+06 1.0594918e+06 5.0772475e+06 1.8669434e+06
000100 9e 39 43 49 2a 89 a1 4a 31 45 b7 47 34 57 0c 49
       799641.9 5.293205e+06 93834.38 574835.25
000110 0c 96 3a 4a 27 d3 4d 49 31 22 1b 4a 0f 12 bb 46
       3.057027e+06 843058.44 2.5417082e+06 23945.03
000120 f0 18 a0 49 43 cd 26 47 5b 03 a3 4a a1 50 dd 48
       1.311518e+06 42701.26 5.3416135e+06 453253.03
000130 26 3c f0 47 6d fb ba 47 fe 3b ba 4a 1d c4 a1 4a
       123000.3 95734.85 6.102527e+06 5.3007505e+06
000140 87 55 a0 48 f8 88 94 49 59 e8 30 4a 8c 85 14 4a
       328364.22 1.216799e+06 2.8984542e+06 2.433379e+06
000150 27 f0 7c 4a 0e 32 b9 4a f1 93 65 4a 84 e4 59 48
       4.1441378e+06 6.068487e+06 3.7614042e+06 223122.06
000160 7c 2d 01 48 11 62 0c 4a c2 ac 20 4a f7 8b 87 49
       132277.94 2.3000362e+06 2.6324965e+06 1.1103989e+06
000170 ea d5 0d 49 8e 9e 03 4b bd da a5 46 6f f4 30 4a
       580958.6 8.625806e+06 21229.37 2.8992278e+06
000180 79 d7 ed 48 de d1 07 4b 06 6c 5c 49 ec 7d 3b 4a
       487099.78 8.901086e+06 902848.4 3.071867e+06
000190 85 4f bb 47 ab 6a 2f 46 c3 50 1f 4a a9 3e 6a 4a
       95903.04 11226.667 2.6102248e+06 3.8378662e+06
0001a0 45 96 9e 4a 25 12 07 49 d6 db aa 46 a6 6b a6 49
       5.1965785e+06 553250.3 21869.918 1.3633168e+06
0001b0 c8 46 bf 48 d5 3e 1c 4a 7b 36 bd 46 4a 16 0d 4a
       391734.25 2.5599252e+06 24219.24 2.3115705e+06
0001c0 03 ec 87 49 fb 42 d8 4a 68 d0 6a 4a b4 ba bd 4a
       1.1134724e+06 7.0864615e+06 3.847194e+06 6.21705e+06
0001d0 94 43 e8 48 3b 4d fd 4a 7a f8 fe 4a af 40 08 4a
       475676.62 8.3001895e+06 8.354877e+06 2.2323638e+06
0001e0 b6 4c 3c 49 0c a2 07 4b 21 22 2c 4a 82 a0 1f 49
       771275.4 8.888844e+06 2.8202322e+06 653832.1
0001f0 38 c8 a6 49 c3 b9 a2 49 92 59 a2 4a 0c 84 1c 4a
       1.366279e+06 1.3330484e+06 5.319881e+06 2.564355e+06

exp_avg f4 [2, 128]
000000 6c ab c2 c1 2a 64 6b 42 ee e4 34 42 50 76 07 c2
       -24.333702 58.847816 45.223564 -33.86554
000010 5d 03 b0 41 ac 16 68 c1 61 ed 15 42 30 69 cb 41
       22.001642 -14.505535 37.481815 25.426361
000020 55 01 fe 42 50 fe c2 c1 07 22 6f 42 60 09 ba c1
       127.0026 -24.374176 59.78323 -23.254578
000030 d1 58 db 42 cc 99 f3 c2 96 3c 41 c2 2e 51 12 c3
       109.67347 -121.800385 -48.309166 -146.31711
000040 33 e1 a8 42 43 38 83 c0 da 7e 87 c2 02 06 24 c3
       84.43984 -4.100618 -67.74776 -164.02347
000050 73 bc b9 41 c6 f1 aa 41 67 76 63 41 66 5c af c2
       23.217016 21.368053 14.216407 -87.680466
000060 42 22 d7 c1 e3 d3 46 42 fd a7 d3 c1 7b 79 e3 c1
       -26.891727 49.70692 -26.457026 -28.434317
000070 05 e2 5e c2 42 76 a0 40 27 e9 05 43 ed b6 c1 c0
       -55.720722 5.014436 133.91075 -6.05358
000080 f3 79 14 41 45 1c e3 c2 06 d8 15 42 d1 38 cc c2
       9.279773 -113.555214 37.46096 -102.11097
000090 4f 5a 22 c2 71 96 6e c2 d7 cd 85 c2 ba a4 2d c2
       -40.588192 -59.646915 -66.90203 -43.410866
0000a0 15 1d 0e c3 eb ab 0b c2 b0 01 73 c1 d6 6c 97 c2
       -142.1136 -34.91789 -15.187912 -75.71257
0000b0 f7 4e eb 42 f4 4c 4c 42 86 16 6c 42 91 bd ec c1
       117.65423 51.07515 59.021996 -29.592562
0000c0 33 ed ab 42 70 07 10 42 b9 0d 0e c1 61 ef 61 c2
       85.96328 36.007263 -8.87835 -56.48377
0000d0 73 79 0d 41 af 71 1a c3 60 9f 99 42 58 eb 48 be
       8.842151 -154.44408 76.81128 -0.19621027
0000e0 f6 f1 63 42 31 86 10 c3 8f 49 15 43 ff ed 29 c3
       56.98629 -144.52419 149.28734 -169.92967
0000f0 2f ee 07 c3 c9 53 29 c2 f6 45 5a 42 e4 8f 7f 41
       -135.9304 -42.33182 54.56832 15.97263
000100 0a dd f0 42 9a c6 0d c3 8b e3 3a 43 c3 49 d6 c1
       120.43172 -141.77579 186.88884 -26.786016
000110 51 85 3c 42 5e d3 15 42 01 04 36 c1 c0 5d c1 c2
       47.13019 37.456413 -11.3759775 -96.683105
000120 14 35 ef 42 91 04 ff c2 f6 51 16 c3 74 26 9d 42
       119.60367 -127.50892 -150.32016 78.5751
000130 6a a3 86 42 7f cd 0f 42 8f fd 30 c2 70 d8 55 42
       67.31917 35.95068 -44.247616 53.461365
000140 e3 70 bf 42 7a fc cf 42 f8 e1 d9 c1 55 20 92 41
       95.72048 103.99312 -27.235336 18.265787
000150 c2 a1 fc 40 3b 73 99 c1 fc 3f 3f 41 1d 34 ce 42
       7.894746 -19.181265 11.953121 103.10178
000160 97 38 0d 43 c7 e8 c3 42 bc d6 13 c2 ce 40 48 42
       141.22105 97.95464 -36.9597 50.063286
000170 8c 87 3a 42 58 d5 69 c2 a7 dd e5 41 3c 27 c5 c2
       46.63237 -58.458344 28.733229 -98.57663
000180 43 d1 e2 c2 ca a5 dc 41 10 5d 83 c1 9f 77 1e c2
       -113.408714 27.580952 -16.42044 -39.616817
000190 a1 dd e5 42 7e 3a 94 41 98 8a 89 c2 99 9d 22 42
       114.93287 18.52856 -68.77069 40.653904
0001a0 02 eb 88 42 c3 78 c4 c1 03 80 25 c3 25 06 d7 c2
       68.459 -24.558966 -165.50005 -107.512
0001b0 fe b2 2a c2 ba ee 1b 42 79 05 bb 3f 7b 36 2f 42
       -42.674797 38.98313 1.4611045 43.803204
0001c0 da ce ff c2 7e 1b b5 42 da 04 0e 42 80 05 16 41
       -127.90401 90.553696 35.504738 9.376343
0001d0 c1 44 2c c2 a5 1e 01 42 c6 49 03 43 a6 89 98 41
       -43.067142 32.279926 131.28818 19.067211
0001e0 c2 91 bd c2 f4 24 a8 42 10 84 ed c1 58 93 27 c2
       -94.78468 84.072174 -29.689484 -41.89389
0001f0 3c e8 53 42 ed e9 71 c2 7c 08 df c2 b9 38 bc c1
       52.97679 -60.478443 -111.51657 -23.527697
000200 2c 60 53 42 eb 4b 43 42 02 90 39 42 64 03 9e c2
       52.843918 48.82414 46.390633 -79.00662
000210 02 47 39 42 09 0f 0a 43 73 24 a4 c2 b0 ac 92 42
       46.319344 138.05873 -82.07119 73.33728
000220 ad 25 03 40 75 00 b7 42 76 18 5e 3e b6 ba c0 40
       2.0491745 91.50089 0.21689019 6.022792
000230 91 f4 68 c2 cc 90 bb 41 2a a0 c9 c2 6a fa 36 42
       -58.238834 23.445702 -100.81282 45.744545
000240 55 c1 14 c1 b4 d1 c4 c2 df fa 81 c2 b1 5f ba 41
       -9.2972 -98.40958 -64.98998 23.296724
000250 bd 87 e0 bf 9e c8 76 c2 fd cf a5 c2 31 99 b6 41
       -1.7541424 -61.695915 -82.90623 22.8248
000260 4e 32 82 41 6e ed 4c c2 34 63 01 43 3d 85 73 c2
       16.274563 -51.231865 129.38751 -60.880116
000270 63 78 19 41 ee f8 fa c0 cb a5 d9 c0 67 59 05 43
       9.591891 -7.842887 -6.8014884 133.34923
000280 36 13 d9 bf ae 9f 72 42 d2 dc 59 42 d8 7b 04 41
       -1.6958988 60.655937 54.465645 8.280235
000290 ff b4 a9 42 ab b3 aa c2 ae 83 03 43 0f b1 95 c2
       84.85351 -85.350914 131.51437 -74.84582
0002a0 2d 5d 6c 42 b0 3f 8d c2 2e 2a 92 c2 73 4e a2 c2
       59.090992 -70.62439 -73.08238 -81.15322
0002b0 68 d1 ce c1 4a 4f 1d c2 17 62 7a 42 83 83 17 42
       -25.85225 -39.32743 62.59579 37.87843
0002c0 9b 20 ba 41 e4 6a e8 c2 10 b5 98 c2 18 8c 55 c2
       23.26592 -116.20877 -76.35364 -53.38681
0002d0 0f 57 3b c1 0f 59 53 42 db 09 25 42 de 28 f2 42
       -11.708755 52.83697 41.259624 121.07982
0002e0 c7 a1 46 c2 4d eb 30 c2 d1 99 15 c2 9f be 6a c1
       -49.657986 -44.229786 -37.40021 -14.671538
0002f0 11 33 48 c2 42 83 b5 c2 c6 22 2c 42 4d b5 09 42
       -50.04987 -90.75636 43.03396 34.42705
000300 58 b4 25 c2 6b 83 49 42 b7 7c a0 41 6d 4a ca c2
       -41.426117 50.378338 20.060896 -101.14536
000310 cf df d6 41 e9 74 36 c1 71 62 a8 42 6a 21 0c c1
       26.859282 -11.4035425 84.19227 -8.758158
000320 7c 6b 74 42 c2 d2 00 43 70 e3 1f c2 94 d3 9e c2
       61.104965 128.82327 -39.972107 -79.41324
000330 28 e7 ee c1 df 90 87 42 cd a9 8f 42 89 b9 94 42
       -29.86287 67.78295 71.83164 74.36237
000340 20 a9 86 42 ec 44 81 40 cc 3c b4 c2 fb f8 4b c1
       67.33032 4.0396633 -90.118744 -12.748286
000350 dc 16 cf c2 17 9f ad c2 d6 7f cf 42 41 06 10 c2
       -103.54465 -86.81072 103.74968 -36.006107
000360 15 c2 6f 3f 94 e7 66 c2 9b eb bc 42 b6 92 cf c1
       0.9365552 -57.72615 94.46017 -25.946636
000370 f0 b0 88 42 25 69 96 c1 19 88 23 42 9d 37 84 c2
       68.34558 -18.80134 40.882908 -66.10862
000380 ed 47 84 c2 90 bc 26 c1 15 17 0e 43 dd af 8d c2
       -66.14048 -10.421036 142.09016 -70.84348
000390 c2 e3 68 42 31 27 fd 42 32 f0 8e c2 02 32 99 c1
       58.22242 126.576546 -71.46913 -19.149418
0003a0 5c 97 c4 42 12 09 a4 c0 05 26 1a c2 c1 c2 b1 c0
       98.29562 -5.126107 -38.53713 -5.5550237
0003b0 a1 b2 9d 42 7b 6d ef c2 64 0e f1 c1 91 35 14 c2
       78.848885 -119.71383 -30.132027 -37.05231
0003c0 df 54 9c c1 f6 cd 2c c2 9d c9 c7 42 a6 d7 50 42
       -19.541441 -43.201134 99.893776 52.210594
0003d0 98 56 65 c2 82 ff dd 41 1d 91 bf bf 1c 06 81 c2
       -57.334564 27.74976 -1.496616 -64.51193
0003e0 20 02 87 c2 af 55 5c c2 08 5f 06 41 8e 85 70 c2
       -67.50415 -55.083675 8.398201 -60.130424
0003f0 f6 e8 bf c2 d1 a4 81 c2 78 1e e3 c1 f3 cd ce c2
       -95.955 -64.82191 -28.389877 -103.402245
