primal.pth (torch, 26297 bytes, 11 tensors)

conv1.lin.weight f4 [64, 2]
00000000: 5ccf 4e41 f463 2ebf 4a4d 65c1 4a65 5abd
00000010: 439c 47c1 e078 e73e cf05 46c1 d218 1cbd
00000020: 1e71 4f41 d321 4abc d312 50c1 5454 453f
00000030: a466 6341 8ccc 9f3e af84 4cc1 3c6e acbe
00000040: 8a7b 4341 f78d d6bd 23d0 5341 75ed 033f
00000050: 353b 5dc1 6cc2 2ebf d4a1 40c1 6214 133f
00000060: 6e87 50c1 e10d 9b3e e885 5241 3b25 68bf
00000070: 427d 5f41 3d3f 36bf 5835 52c1 f1cd 343f
00000080: 8279 43c1 13e8 8e3e 1222 5841 afad 4a3f
00000090: 7e45 55c1 1534 aabe f262 4e41 ac74 de3e
000000a0: ddce 42c1 af68 163e 89ea 5241 5144 b0be
000000b0: 2e5c 5e41 6d8a 4ebf 83fa 65c1 78ef 283f
000000c0: 46c1 4dc1 72b7 0b3f 6f07 53c1 b2d3 cebe
000000d0: ab11 6ec1 06bb 1e3f ff34 5841 26f3 2bbe
000000e0: 5177 4441 39b5 e63d abf4 57c1 72b4 423c
000000f0: 9bad 49c1 ce94 4b3c 50da 4dc1 5186 3fbe
00000100: edb1 5241 47f4 3cbf bcd8 5341 5781 7cbe
00000110: 5818 48c1 b380 8b3e 225b 4c41 7750 bb3e
00000120: 26f2 75c1 56a4 02be e322 5bc1 3cd4 8d3f
00000130: 6f72 3dc1 4bdc d1bd 41fc 5dc1 6cc7 603e
00000140: fedd 6b41 50e3 6ebf a18d 5f41 5a6c a1be
00000150: 1318 65c1 0698 cb3e c1b8 4c41 ea67 463e
00000160: dc6f 4641 b0b0 ef3d bb8b 68c1 4ccc 4f3f
00000170: b375 46c1 65dd 15bf 0122 5441 cb66 38bf
00000180: b041 6841 2c28 f53e 02bc 3cc1 a683 37bf
00000190: 4669 50c1 742b f93d aaf6 6141 fdf9 a93e
000001a0: b3dd 3a41 0a3d d93e 12b6 5941 fe88 963e
000001b0: f5a1 62c1 be9a 58bf d31e 5f41 2147 693e
000001c0: c537 52c1 5310 b7be b114 5841 a2a6 1a3e
000001d0: 9429 53c1 7250 3e3d 068e 41c1 3d7a 2f3f
000001e0: 60c2 6441 5a33 00bf 6f7f 3e41 23c5 a33e
000001f0: 2f6a 6541 3774 77be 908c 5441 0fd7 7bbe
12.925625 -0.68121266 -14.331369 -0.053319253 -12.47565 0.45209408 -12.376418 -0.038109608
12.9651165 -0.012337166 -13.004596 0.770818 14.212559 0.31210744 -12.782393 -0.33677852
12.217661 -0.104762964 13.238315 0.51534206 -13.826955 -0.68265414 -12.039509 0.57452977
-13.033064 0.30284026 13.157692 -0.9068181 13.9680805 -0.71190244 -13.138023 0.7062674
-12.217165 0.27911434 13.508318 0.7917127 -13.329466 -0.3324286 12.899157 0.4344839
-12.175504 0.14688371 13.18226 -0.3442712 13.897505 -0.8067997 -14.37366 0.659904
-12.859686 0.5457679 -13.189315 -0.40395886 -14.879313 0.62004125 13.5129385 -0.16791973
12.27913 0.11265034 -13.497233 0.011883842 -12.604884 0.0124256145 -12.865799 -0.18703581
13.168439 -0.7381024 13.240414 -0.24658714 -12.505943 0.27246627 12.772249 0.36584827
-15.371618 -0.12758002 -13.696017 1.1080394 -11.840438 -0.10247096 -13.874085 0.21951073
14.741697 -0.933156 13.972077 -0.31527978 -14.3183775 0.39764422 12.795106 0.19375578
12.402309 0.11703622 -14.534114 0.8117111 -12.403735 -0.58540946 13.258302 -0.7203185
14.516037 0.4788221 -11.7959 -0.71685255 -13.0257015 0.12166491 14.122721 0.33198538
11.679126 0.42429382 13.606951 0.29401392 -14.16454 -0.8461112 13.945025 0.2278104
-13.138616 -0.35754642 13.505052 0.15102628 -13.197651 0.046463437 -12.097174 0.68545896
14.297455 -0.50078356 11.906112 0.3198634 14.338424 -0.24165426 13.284317 -0.24593757

conv1.lin.bias f4 [64]
00000000: 0b4c f1bd 7f0f 6ebc fb88 aa3e 86d3 d13e
00000010: d398 1fbe 7d18 b43d 8934 e03d 4035 aa3e
00000020: 3f14 8d3e 1080 03be 29b8 233e 27db 5dbe
00000030: 618e 8e3e 4167 653e d5b6 3b3e ab3d 83be
00000040: 6930 a53e 579a a2be 9139 18be a08d 71be
00000050: 9a50 cdbe e935 d4bd 893d 233e 2004 933d
00000060: d29e c43e aae9 4f3d 490d d13d 5aa2 27bd
00000070: fbbf d7be 13ef 8b3c 4d8c 893e 3f67 c83d
00000080: 786f ca3e f7bd 08be 1a03 63be c8b6 2abe
00000090: fa19 3c3d 7a8d cabe 0f68 bb3e 1ff5 72bd
000000a0: 9d79 653e 9488 09bc 461a 35bc 6f2d d3bd
000000b0: 59ce b1bd 2f5e ccbb eb84 fb3d 1825 9d3e
000000c0: bb6d 0fbc d654 c03e f9ab f53d 7336 15be
000000d0: b34d 9fbe 53f4 29bd 037e 8e3e 9665 5fbd
000000e0: 6477 5fbe f486 853e 5708 b83e 3911 c4be
000000f0: fd2d 593e 26e3 d13e 6423 e2bc c528 8b3e
-0.11782082 -0.014530062 0.33307633 0.40981692 -0.15585642 0.08793733 0.1094752 0.33243752
0.2755451 -0.1284182 0.1598822 -0.21665631 0.27843 0.2240267 0.18331464 -0.25632986
0.32263497 -0.31758377 -0.1486571 -0.23589182 -0.40100557 -0.10361845 0.15941443 0.07178521
0.3840242 0.05075995 0.10207612 -0.040926315 -0.42138657 0.017081773 0.26864854 0.09785318
0.3953817 -0.13353716 -0.22169152 -0.16671288 0.04592321 -0.39561063 0.36602828 -0.059315797
0.22409673 -0.008394379 -0.011053627 -0.103114 -0.08681936 -0.0062368135 0.122812115 0.30692363
-0.008754189 0.37564725 0.11995692 -0.14571552 -0.31113967 -0.04149277 0.27830514 -0.05454024
-0.21822888 0.26079524 0.35943863 -0.3829439 0.2120895 0.40993613 -0.027604766 0.27179542

conv2.lin.weight f4 [64, 64]
00000000: b0ea 193d 482e e53c 8083 033b 7a0f cdbd
00000010: 1016 48bd b081 e8bd 043a 263d d098 88bc
00000020: 60da 9d3c 30dc 923c 54b8 7f3d 90e4 a03c
00000030: 10fb 52bc d6b8 abbd bcc1 e8bd c814 c1bc
00000040: 3040 cbbc 7008 503c 3888 ce3c 58f0 d3bc
00000050: 1063 023d fa0e e9bd c257 8ebd ae2b e23d
00000060: 0676 923d 80ef 91ba 20a1 113c 8a10 833d
00000070: 0048 ebbc 5c7f 0ebd 9235 9bbd a48c 6c3d
00000080: 8874 f2bd 7617 a0bd f8e0 643d a085 1bbd
00000090: aafa d4bd 30d5 05bd 6e61 98bd 12d0 f5bd
000000a0: dc7b a43d 667d a13d 0018 343c b401 8cbd
000000b0: 00c6 13bd 3210 a03d 50b4 e5bc 4aa1 acbd
000000c0: 4ea5 83bd 04ca 99bd d015 333c 4a18 f73d
000000d0: a8a4 a73c 3851 90bd 7891 edbc d8da c43c
000000e0: 805f 88ba 40f4 6b3d dc2c 693d 84de ce3d
000000f0: 144d b63d cc1b 2abd 2c4e 9cbd 4ca0 8b3d
00000100: d60b 9ebd 003d 0cbc d0ae 6abd 3c6d 333d
00000110: 7a5c d53d ec6e 8c3d 4422 0cbd 847e 093d
00000120: a85a d23c ecf0 c73d 1035 f8bc 3e7c dfbd
00000130: a46b a13d d868 073d 28ce db3d 5499 a2bd
00000140: c437 eebd f065 153d 1895 91bc f8fe 7cbd
00000150: 0c48 173d 90fe 18bd 786b a83d 7018 cb3d
00000160: 988a 14bd 1e5c b73d 98f5 e9bc 0e73 dfbd
00000170: 9216 d1bd 448a cb3d 8037 86bb 00ec 5abd
00000180: 46ba acbd 4431 9d3d a40a 483d c6af de3d
00000190: b0ba f93c 9056 3a3c 1899 563d 34f8 593d
000001a0: e4a5 7cbd 0ccd bebd 38ef 783d b0b8 813d
000001b0: 7060 723d 6031 b0bb 603a 8dbd 58b5 573d
000001c0: 5849 8b3d 70f4 d83d 3800 e3bd 4edf a33d
000001d0: 2c88 d9bd d898 a8bc a6c5 d13d 68db eabc
000001e0: f0a9 16bc 400b 97bd 8a2d e9bd 7acd 813d
000001f0: a8e9 963c 96f3 93bd 385e 743d 243f e33d
00000200: f83e f6bd 80ba 903b c092 dc3b acc6 94bd
00000210: 1ca1 0fbd 3c4f 563d 08ea 7a3d dcb1 b93d
00000220: c49a 23bd 6cf0 083d 6cf5 013d a8c7 1d3d
00000230: be3b c83d 400f 3a3b 80c7 6c3b 8aef cd3d
00000240: 72cb d03d ec20 2dbd 9811 f6bd 709d 7b3d
00000250: c2b1 ffbd f84b 953d 2ab9 92bd 88aa 9cbc
00000260: 4e92 f63d e4c4 84bd 42de bbbd f8dd 89bd
00000270: c8b3 d1bd be29 d03d 98cb c63c f047 82bd
00000280: 0e36 90bd 945b 86bd fcc4 3abd 4041 413d
00000290: 40f3 aa3d a0cd 33bc 709b f3bd f003 5cbc
000002a0: 401a ef3c 1c68 65bd 56f6 d13d fa2c ad3d
000002b0: 901f 223d 504f ba3d 8e67 febd e016 253c
000002c0: 988d a93c d4f3 95bd 0085 073d acff aabd
000002d0: 8ad3 f9bd 08bb 3fbd 8c1f 2b3d 68e8 aebd
000002e0: 60a7 dfbc d09e 4a3d 9034 a43d 02c9 a63d
000002f0: e0fe d13b 728e 8fbd b8a2 64bd 0439 c3bd
00000300: c2d2 80bd b80a 983d 54b9 d63d a8c4 2f3d
00000310: 5c83 b8bd 46d2 dfbd 20f3 5ebc 9079 393c
00000320: 8492 483d f612 b83d d865 6dbd c02c a1bc
00000330: 88e5 08bd 963b 87bd 06ae b6bd 58b2 f43c
00000340: 141a 3fbd 784a a73c 5018 693c 4013 d53b
00000350: 1881 df3d ccb3 f1bd d4c5 cbbd 24bb c7bd
00000360: dced f4bd aa04 e2bd 56c5 dd3d 3055 973d
00000370: fa58 dbbd eaf8 a43d 5835 f5bd 527c 9d3d
00000380: 4858 8b3c bce7 fdbd 7e58 f6bd fa44 e0bd
00000390: 2c2d f53d 30d9 ff3c c89e 9f3d 003b 48bc
000003a0: 749d ad3d 60aa 66bc 4ea1 a5bd 4087 833b
000003b0: 6028 d0bb 8679 de3d 044b bd3d 8cf9 7a3d
000003c0: 60d2 b53d ceab e23d 8827 d43d e432 83bd
000003d0: 24a9 293d 70ab f5bc 6813 a53d d050 c8bd
000003e0: 1e58 dabd 28b5 5a3d a067 bfbd 560f c63d
000003f0: f034 eebc 00c6 b73a 70f1 853d c49c 3cbd
0.03757733 0.02797617 0.0020067394 -0.100127175 -0.048849165 -0.11352861 0.04058267 -0.01667443
0.019269168 0.01792726 0.06243165 0.019640237 -0.012877241 -0.08384864 -0.11365077 -0.02356948
-0.02481088 0.012697324 0.025211439 -0.02587144 0.031832755 -0.1137981 -0.06950332 0.110434875
0.071514174 -0.0011133999 0.008888513 0.06399639 -0.028720856 -0.034789428 -0.07578577 0.057751313
-0.11838633 -0.07816975 0.05587861 -0.03796923 -0.10399373 -0.032674015 -0.07440458 -0.12002577
0.08031437 0.07885246 0.01099205 -0.06836262 -0.0360775 0.07815589 -0.028040081 -0.08429201
-0.06428014 -0.075092345 0.0109304935 0.1206518 0.020464256 -0.07046741 -0.029000029 0.024030134
-0.0010404438 0.05760598 0.056927547 0.10101035 0.0890142 -0.041530415 -0.076320976 0.068176836
-0.07717101 -0.008559465 -0.05729562 0.043805346 0.10418029 0.06857094 -0.034212366 0.03356792
0.025677994 0.09762749 -0.03029874 -0.10912369 0.07881859 0.03305897 0.107326806 -0.07939401
-0.1163173 0.03647417 -0.017771289 -0.061766595 0.036933944 -0.037352145 0.08223623 0.099167705
-0.036264986 0.08953117 -0.028559491 -0.10910617 -0.10209383 0.099384815 -0.0040959716 -0.053447723
-0.08433966 0.07675412 0.048838273 0.1087337 0.030484527 0.011373177 0.052392095 0.05321522
-0.061681643 -0.09316453 0.06077501 0.063340545 0.059174 -0.0053769797 -0.068959 0.052663177
0.068010986 0.10593498 -0.11084026 0.08001576 -0.10621676 -0.020580694 0.102427766 -0.028669074
-0.00919579 -0.07375193 -0.11385639 0.0633802 0.018421963 -0.07224195 0.059660167 0.110960275
-0.12023729 0.004416764 0.006731361 -0.07264456 -0.035065755 0.052321658 0.061258346 0.09067127
-0.039942518 0.03343241 0.031728193 0.038520485 0.0977702 0.0028390437 0.0036129653 0.10055454
0.10195054 -0.042267725 -0.120150745 0.06142944 -0.124850765 0.072898805 -0.071642235 -0.019124284
0.12039624 -0.064828664 -0.09173252 -0.0673179 -0.10239369 0.10164212 0.024267003 -0.06361377
-0.0704156 -0.06560436 -0.045598015 0.047181368 0.083471775 -0.010974318 -0.11894882 -0.013428673
0.029187322 -0.05600749 0.10252063 0.08455844 0.03958088 0.09097159 -0.12422095 0.010076255
0.0206974 -0.07321897 0.033085823 -0.08349547 -0.12198551 -0.046809226 0.041778132 -0.08540422
-0.02730149 0.04946786 0.08017838 0.08143808 0.0064085573 -0.07009591 -0.055819243 -0.09532359
-0.06290199 0.074239194 0.10484567 0.042912155 -0.0900943 -0.10928778 -0.01360777 0.011320487
0.048967853 0.089879915 -0.057958454 -0.019674659 -0.033422023 -0.06603162 -0.08919911 0.029870197
-0.04665573 0.020421252 0.014226988 0.006502539 0.109132946 -0.11801872 -0.09949842 -0.09752491
-0.119594306 -0.11036046 0.108286545 0.07389295 -0.1071033 0.08055289 -0.11973065 0.07689728
0.01700987 -0.123977154 -0.12028597 -0.10950656 0.119715065 0.031231493 0.07793957 -0.012221098
0.084772974 -0.0140787065 -0.08087407 0.004013926 -0.0063524693 0.108630225 0.09242824 0.061273143
0.088780165 0.110679254 0.103591025 -0.06406191 0.04142107 -0.029988974 0.08060342 -0.09781039
-0.10661338 0.05339542 -0.09345937 0.09670894 -0.029077977 0.0014020801 0.06540191 -0.04604794

conv2.lin.bias f4 [64]
00000000: aeb5 a3bd 44bb dbbd 98a7 aebc 6478 1c3d
00000010: 56e2 b6bd 8c28 83bd 428e 863d 70b9 e3bd
00000020: 5056 59bd 00f5 d4bb 22e2 c63d 7032 6dbc
00000030: c20e a13d 0050 2b3a 389c f6bc 245a 7dbd
00000040: 341e 86bd 18a4 b5bd 8477 c93d 5c1d e2bd
00000050: b42d f7bd d036 b5bd b0b6 7a3d e097 a43b
00000060: e8a2 923d 22fe debd 2ce7 7b3d 485f 86bc
00000070: a442 29bd c889 2abd 6ccf 85bd 044b 81bd
00000080: 0097 a93a dadf 92bd c0b4 71bc d21c 88bd
00000090: 1a65 cf3d 00d4 173c 30b5 643d 9abb d93d
000000a0: 38a4 51bd d48b efbd f2a8 84bd 2c68 9bbd
000000b0: 9c88 71bd 20a2 50bd dcb7 c2bd 94c1 09bd
000000c0: d643 d1bd b08c 7e3c c832 4e3d 0811 83bc
000000d0: 5c8f 06bd 82a9 c8bd 9cae 8f3d 1279 ba3d
000000e0: 845f 103d 006d 103c 801c bfbc b838 a73d
000000f0: 2021 7ebc 5ca1 c63d 386d e1bd 908b a23d
-0.07993637 -0.107290775 -0.02132015 0.03820075 -0.08929889 -0.06404218 0.06570102 -0.11119354
-0.05306083 -0.006498933 0.097111 -0.014477357 0.07864143 0.0006535053 -0.030103788 -0.061853543
-0.065487295 -0.08869189 0.09837249 -0.11040756 -0.12069264 -0.08848345 0.06120938 0.0050229877
0.07159978 -0.10888316 0.06149976 -0.016402856 -0.04132332 -0.041635305 -0.06533703 -0.06313136
0.0012938678 -0.071716025 -0.014752567 -0.06646122 0.101267055 0.009266853 0.055836856 0.10631485
-0.051182 -0.11696592 -0.06477536 -0.075882286 -0.05896817 -0.050935864 -0.09507725 -0.033631876
-0.10218017 0.015536472 0.050341398 -0.015999332 -0.032851562 -0.09797956 0.07015726 0.091051236
0.03524734 0.00881505 -0.02332902 0.08165115 -0.015510827 0.096987456 -0.1100716 0.07936776

lin.weight f4 [1, 64]
00000000: 2b27 a6bf 0b26 1341 644b e63e 96ae c43e
00000010: 552c 7ebf 985f cd3f 579b dbbf a755 e13e
00000020: 3b52 1ebf 412a a3bf b69c 793f 2447 433f
00000030: aec1 243f 8b6e 59bf 7fbd 83bf bd71 353f
00000040: 81b7 053f a043 f7be a33d 9c3f d768 36bf
00000050: 237d c73e f9d4 bdbf 6773 93bf e928 0840
00000060: 68ea e03e 41db 3740 e32a cd3f 0ac4 62c0
00000070: d106 a0be 2627 c140 afb9 233f 8554 c63f
00000080: 1dea f6be bb87 a2bf e120 383f d183 6dbf
00000090: 4834 5c40 b3ce e93e 621e d73e de07 4140
000000a0: b381 4dbf 501b f5c0 02cf 0f41 d492 bcbf
000000b0: 8e9b d3bf c281 0641 73c8 9c3f dae8 11bf
000000c0: 77bf 03c1 f18d e93e 3ec2 ac3f 4c75 8fbf
000000d0: 9c92 08bf f839 5fc0 ffda 0a3f 470f 40c0
000000e0: d9a1 4d3f f301 35bf d70d c43e 543e d93e
000000f0: 2129 60bf 4192 d4be ef08 97c0 c66b 28bf
-1.2980703 9.196788 0.44979393 0.38414448 -0.99286395 1.6044798 -1.7156781 0.4401066
-0.61844224 -1.274727 0.97504747 0.76280427 0.6435803 -0.849343 -1.0292205 0.70876676
0.5223313 -0.4829378 1.220631 -0.7125372 0.3896266 -1.4830619 -1.1519593 2.127497
0.43928838 2.8727572 1.6028713 -3.5432153 -0.312552 6.036029 0.63955206 1.5494543
-0.4822549 -1.2697672 0.7192517 -0.9277926 3.440691 0.4566551 0.42015368 3.0161052
-0.8027603 -7.659584 8.988039 -1.4732308 -1.6531847 8.406679 1.2248672 -0.5699593
-8.234244 0.45616105 1.3496778 -1.1207671 -0.5334871 -3.4879131 0.5424041 -3.0009325
0.80325085 -0.707061 0.3829181 0.42430365 -0.8756276 -0.41517833 -4.7198405 -0.6578945

exp_avg f4 [64, 2]
00000000: 7e6d 11b6 b4fb 8ab6 ad2e 8237 a1cd f837
00000010: 1b20 3835 c4fb af35 eb2b 1535 5a95 8e35
00000020: 9168 dcb5 bda5 52b6 2bc2 3436 88be ac36
00000030: 129a 3fb6 6d13 b7b6 0f61 3435 dc67 ac35
00000040: 2c4a 81b5 7c0f f7b5 bb84 0eb6 c834 88b6
00000050: d349 d835 aeb6 4e36 284c a435 adfc 1c36
00000060: 3ee0 8735 5edf 0136 205d b6b5 503d 2eb6
00000070: cdbc e0b5 27ba 56b6 edc1 9535 6215 0f36
00000080: f21b 5735 549a cd35 1fce 47b5 e4fa beb5
00000090: ffd7 0636 7dd7 8036 70a3 99b5 50d8 12b6
000000a0: 13b6 1535 d909 8f35 3ca4 26b6 9541 9fb6
000000b0: 47b6 fdb5 dd6a 72b6 753a 7036 d893 e536
000000c0: fdbd 2d35 5612 a635 828a a236 ff54 1b37
000000d0: a02a 3436 0b2f ac36 c199 c8b6 d3b3 3fb7
000000e0: 27d3 f0b4 b92b 66b5 e803 2b37 016e a337
000000f0: 62ba 8735 73ba 0136 514c 2e36 9692 a636
00000100: 7248 3ab5 aff6 b1b5 5dc0 0db6 3c79 87b6
00000110: 2b82 9a35 aca1 1336 a652 cdb5 3c3b 44b6
00000120: 2ec0 c236 f01c 3a37 f658 3035 0f79 a835
00000130: 485b 2835 0eea a035 020e aa36 457f 2237
00000140: 8444 acb5 6a96 24b6 03f4 58b7 b856 cfb7
00000150: 527e 7e37 ec31 f337 7391 25b6 e83a 9eb6
00000160: b74b 3ab6 4309 b2b6 e010 6e37 f37f e337
00000170: b71e 0936 4d0b 8336 9100 6ab5 5f91 dfb5
00000180: 393a 69b7 4ee3 deb7 9d97 3535 0393 ad35
00000190: 8227 1736 3075 9036 b88e f9b5 4f82 6eb6
000001a0: 464a 5db5 2582 d3b5 e178 c5b6 7ab6 3cb7
000001b0: 3f6a 6535 6747 db35 f7bb a9b6 1935 22b7
000001c0: 74c6 ac35 d113 2536 71f4 94b5 b64f 0eb6
000001d0: 3742 1a35 5f70 9335 cf6b 2535 c50c 9e35
000001e0: b5e9 bcb5 057e 34b6 936a 1eb5 9159 97b5
000001f0: c2b1 05b7 a186 7fb7 f2ce 89b5 f9a9 03b6
-2.1670417e-06 -4.1420226e-06 1.5518943e-05 2.9659657e-05 6.859206e-07 1.311179e-06 5.5570735e-07 1.0623291e-06
-1.642171e-06 -3.138891e-06 2.693511e-06 5.14818e-06 -2.8550899e-06 -5.4560865e-06 6.7196464e-07 1.2845226e-06
-9.632836e-07 -1.8407441e-06 -2.1236908e-06 -4.0592604e-06 1.611474e-06 3.0802726e-06 1.2241117e-06 2.3392888e-06
1.0123547e-06 1.9352515e-06 -1.358716e-06 -2.596371e-06 -1.6744249e-06 -3.199684e-06 1.1157805e-06 2.1321107e-06
8.013441e-07 1.5318606e-06 -7.443322e-07 -1.4229122e-06 2.0093282e-06 3.8397834e-06 -1.1446955e-06 -2.1881606e-06
5.577178e-07 1.0657196e-06 -2.4831525e-06 -4.746204e-06 -1.8903019e-06 -3.6123013e-06 3.5796813e-06 6.841943e-06
6.472399e-07 1.23733e-06 4.8441007e-06 9.25851e-06 2.6846901e-06 5.131476e-06 -5.978364e-06 -1.1426356e-05
-4.4857117e-07 -8.57453e-07 1.0193304e-05 1.9482339e-05 1.0112528e-06 1.9331026e-06 2.5972442e-06 4.9642504e-06
-6.939582e-07 -1.3259322e-06 -2.1122607e-06 -4.037427e-06 1.1511778e-06 2.1998812e-06 -1.5297744e-06 -2.9240755e-06
5.804023e-06 1.10932015e-05 6.5694564e-07 1.2552208e-06 6.271771e-07 1.1989048e-06 5.0680255e-06 9.685585e-06
-1.2834939e-06 -2.4525457e-06 -1.2931417e-05 -2.4716705e-05 1.5168991e-05 2.8991104e-05 -2.4671579e-06 -4.7156245e-06
-2.7760232e-06 -5.3058916e-06 1.41898345e-05 2.712009e-05 2.043247e-06 3.90542e-06 -8.717262e-07 -1.6657103e-06
-1.3901438e-05 -2.657031e-05 6.764838e-07 1.293229e-06 2.252375e-06 4.305177e-06 -1.8593482e-06 -3.5540613e-06
-8.2437e-07 -1.5758602e-06 -5.8851297e-06 -1.1248159e-05 8.5463756e-07 1.6337552e-06 -5.0584745e-06 -9.668315e-06
1.2872756e-06 2.459845e-06 -1.1098001e-06 -2.1206047e-06 5.7465826e-07 1.0985058e-06 6.162417e-07 1.1775634e-06
-1.4075109e-06 -2.6895443e-06 -5.901467e-07 -1.1276444e-06 -7.968805e-06 -1.523053e-05 -1.0267524e-06 -1.9619458e-06

exp_avg_sq f4 [64, 2]
00000000: df12 3b2f 24b6 f12f ffa1 1532 c5aa c132
00000010: ea14 962d 1870 412e 6c1e 452d 04de fd2d
00000020: 0cf0 d62e d3ca 8a2f 5a77 902f acba 3a30
00000030: 34d2 a12f 78b7 5130 4c0e 902d 04a9 392e
00000040: e23d 132e b323 bf2e 0bb9 332f b02e e82f
00000050: 8f05 cf2e 6ca9 852f eefc 6d2e b55c 1a2f
00000060: f097 232e 60f5 d22e e969 922e 0bfe 3d2f
00000070: 5067 de2e 3240 902f 766d 452e 3d25 002f
00000080: 6df3 cc2d 251b 842e d2da b02d 0aee 632e
00000090: 0347 202f 12cc cf2f cc0e 512e fedd 062f
000000a0: 4e4d 452d f53b 002e 369e 752f 34b4 1e30
000000b0: a2ca 0d2f 1bdf b72f e71f ff2f 78e7 a430
000000c0: 59c5 852d 9c4c 2c2e d1a0 6930 fd0f 1731
000000d0: 0b8d 8f2f be7c 3930 9be6 b130 7e15 6631
000000e0: 823f 002d bd26 a52d db8c 8131 999b 2732
000000f0: 5a2f 232e 537a d22e 545b 862f 26a5 2d30
00000100: e56b 982d 562f 462e 27cb 312f 9dab e52f
00000110: cb70 522e 7284 082f 228b ba2e e4e3 702f
00000120: 49a3 a730 32ca 5831 f395 882d 12a2 312e
00000130: 88f7 7a2d f4b5 212e 7d2e 7f30 6c3c 2531
00000140: 5090 822e 237d 292f 22f5 d031 8330 8732
00000150: 04fe 0e32 2f10 b932 a87a 722f d4ae 1c30
00000160: 097a 992f b163 4630 a559 fa31 cefe a132
00000170: 0057 262f bfec d62f bee1 f02d 8373 9c2e
00000180: 6229 f131 a806 9c32 a21a 922d 6f46 3c2e
00000190: ce20 4a2f 1094 0230 e6ca 092f 76f4 b12f
000001a0: 66db d82d 1bd2 8b2e 4768 ac30 b2fa 5e31
000001b0: 3e22 e92d 9b47 962e d1ba 7e30 8fb1 2431
000001c0: 7078 832e 5997 2a2f 343d 432e fa7c fd2e
000001d0: 8ba7 522d 6baf 072e fbe0 702d a485 1c2e
000001e0: 890f 9d2e c6d4 4b2f 10cd 5c2d 6a80 0f2e
000001f0: dc0e 1e31 4475 cc31 3323 272e fb04 d92e
1.7014255e-10 4.3967063e-10 8.709775e-09 2.2545814e-08 1.7062313e-11 4.398268e-11 1.12049085e-11 2.8861365e-11
9.774234e-11 2.524617e-10 2.6278252e-10 6.793168e-10 2.9435088e-10 7.629448e-10 1.6377254e-11 4.2214246e-11
3.3478893e-11 8.692016e-11 1.6345696e-10 4.2233728e-10 9.4142576e-11 2.431294e-10 5.4112208e-11 1.4039155e-10
3.7196857e-11 9.593282e-11 6.658125e-11 1.7279704e-10 1.0113743e-10 2.623906e-10 4.4889835e-11 1.1654762e-10
2.3300218e-11 6.007487e-11 2.010606e-11 5.1825245e-11 1.4577144e-10 3.779808e-10 4.753424e-11 1.2266096e-10
1.1215319e-11 2.9157083e-11 2.2338828e-10 5.773615e-10 1.2895865e-10 3.3446032e-10 4.6406898e-10 1.1998358e-09
1.520799e-11 3.9176315e-11 8.499344e-10 2.198248e-09 2.6111766e-10 6.747988e-10 1.2943987e-09 3.3481622e-09
7.290059e-12 1.8775531e-11 3.7704075e-09 9.756058e-09 3.7103966e-11 9.5714235e-11 2.443935e-10 6.3171723e-10
1.7328314e-11 4.506203e-11 1.617023e-10 4.1776796e-10 4.7848652e-11 1.2416182e-10 8.483016e-11 2.1908836e-10
1.2197258e-09 3.1547072e-09 1.5528e-11 4.0389088e-11 1.4265818e-11 3.676877e-11 9.2834523e-10 2.4045006e-09
5.9373506e-11 1.5414918e-10 6.081465e-09 1.5738129e-08 8.323244e-09 2.1544194e-08 2.2053348e-10 5.7000915e-10
2.791725e-10 7.217365e-10 7.286149e-09 1.8858739e-08 1.512852e-10 3.9094591e-10 2.738509e-11 7.114578e-11
7.018728e-09 1.8163817e-08 1.6610106e-11 4.280881e-11 1.8383448e-10 4.7504134e-10 1.2532161e-10 3.2369812e-10
2.465379e-11 6.3583104e-11 1.2544285e-09 3.2447756e-09 2.650424e-11 6.83393e-11 9.2670144e-10 2.3966071e-09
5.978584e-11 1.551518e-10 4.4392226e-11 1.1527308e-10 1.197432e-11 3.085125e-11 1.3692376e-11 3.558899e-11
7.142293e-11 1.8538335e-10 1.2551085e-11 3.262849e-11 2.3000473e-09 5.950513e-09 3.8002667e-11 9.868902e-11

exp_avg f4 [64]
00000000: 53e5 58bb d223 c23c 2051 893a b482 5e3a
00000010: ea5d 24bb 82ca 863b fad9 8ebb 3386 863a
00000020: bfc7 c0ba ef8f 54bb 274c 213b 2cfe f43a
00000030: 59ae ca3a 92f4 07bb 078c 27bb 774a df3a
00000040: 606e a03a e904 95ba 3411 493b 602a e5ba
00000050: d63a 5f3a 9e88 78bb 6b27 3dbb 7523 b33b
00000060: fc95 813a b068 f23b e65a 863b 9295 15bc
00000070: 0b97 33ba a70b 7f3c 3674 ca3a b8f9 813b
00000080: 2ddc 8aba 836b 53bb af64 e63a 211e 19bb
00000090: 1e39 113c 6f74 833a 8d1d 7b3a 1697 fd3b
000000a0: 696c 00bb 64c9 a1bc aac3 bd3c 82ee 76bb
000000b0: 84eb 8abb 9884 b13c 4481 4c3b 4572 aeba
000000c0: 7eeb adbc 2270 873a 9570 613b b41b 3abb
000000d0: 9709 a5ba 5940 13bc df19 ab3a b123 fdbb
000000e0: e5ce 003b f715 deba 9b15 663a 69a7 763a
000000f0: 77d5 0cbb c932 6cba 9462 47bc 7678 cdba
-0.0033095672 0.023698721 0.0010476448 0.0008488104 -0.0025080391 0.0041134963 -0.004359481 0.0010263383
-0.0014707966 -0.0032434424 0.002461204 0.0018691472 0.0015463337 -0.002074514 -0.002556564 0.0017035742
0.0012239926 -0.0011369261 0.003068042 -0.0017483942 0.0008515542 -0.0037923227 -0.0028862606 0.0054668733
0.0009886618 0.0073977336 0.0041001914 -0.009129899 -0.0006850815 0.015566743 0.001544601 0.0039665364
-0.0010594182 -0.0032260127 0.0017577613 -0.0023363905 0.008863715 0.0010029207 0.00095792935 0.007738958
-0.0019595867 -0.01974935 0.023164589 -0.0037678783 -0.0042395014 0.021669671 0.0031204978 -0.0013309201
-0.021230455 0.0010333101 0.003439938 -0.002839786 -0.0012591359 -0.00898751 0.0013053975 -0.007725202
0.0019654569 -0.0016943802 0.0008777023 0.00094091013 -0.002148954 -0.0009010253 -0.012169499 -0.0015676159

exp_avg_sq f4 [64]
00000000: 8ad2 8339 ae3b 533c 6000 d337 c575 8a37
00000010: 3063 1739 f8ab cb39 fabb e439 2484 ca37
00000020: ee76 5038 1240 7d39 61ca 1139 e45a a838
00000030: bd1b 6638 0537 cf38 0b54 1d39 9fc2 8b38
00000040: 6e19 1038 089f f837 65a3 6239 981b 9338
00000050: 58da 8b37 921a ad39 b68a 4839 95dd 333a
00000060: 09f2 bb37 30c4 a43a 6c51 ca39 ecf4 fa3a
00000070: 8a26 3437 c9cf b63b 4995 6538 6766 bd39
00000080: 6124 d837 c882 7a39 71e4 9438 0860 0339
00000090: f574 ec3a c7b9 c137 ad64 b037 9638 b43a
000000a0: f5d9 b838 a373 133c 52d9 493c 16e6 aa39
000000b0: 9363 d839 3cb0 303c 206d 6a39 30a1 2a38
000000c0: 992d 2a3c eb5d cd37 366d 8e39 6e1a 4239
000000d0: 2d83 1838 2635 f33a d0eb 2338 60a2 b33a
000000e0: 760e ba38 933b 8a38 9501 9437 10b4 aa37
000000f0: fa4e de38 6181 9c37 3d01 5f3b beb0 6c38
0.0002514313 0.012892647 2.5153335e-05 1.6505723e-05 0.00014437432 0.00038847304 0.00043627602 2.414181e-05
4.9701826e-05 0.00024151828 0.0001390367 8.027794e-05 5.4862106e-05 9.880777e-05 0.00015003995 6.6642875e-05
3.435596e-05 2.9637959e-05 0.00021613909 7.014646e-05 1.6671765e-05 0.00033016928 0.0001912516 0.00068613264
2.2404844e-05 0.0012570675 0.00038589106 0.0019146479 1.0737809e-05 0.005578969 5.4736887e-05 0.00036125185
2.5766147e-05 0.00023890578 7.0997405e-05 0.00012528908 0.0018040227 2.3093902e-05 2.1027716e-05 0.0013749774
8.8144014e-05 0.008999738 0.01231988 0.00032596354 0.0004127292 0.010784205 0.00022356631 4.0681276e-05
0.010386848 2.4481638e-05 0.0002716572 0.00018511128 3.636179e-05 0.0018555268 3.9081846e-05 0.0013705008
8.871865e-05 6.591449e-05 1.7643712e-05 2.0349427e-05 0.000106004954 1.8656896e-05 0.0034027838 5.643139e-05

exp_avg f4 [1, 64]
00000000: 7868 96b9 dafd 72b8 4f78 553a 9154 813a
00000010: 17d0 c7b9 e1ef 5c39 ab56 9e39 945b 543a
00000020: 38a9 393a cc45 a2b9 2e3d cb39 fbd7 13ba
00000030: c551 333a 52c8 183a ace4 fd39 d47e 2dba
00000040: ef10 4f3a cf9f 4aba 6596 d1b9 c7c3 17ba
00000050: 8d83 82ba 87a0 82b9 de5e de39 5ab7 2e39
00000060: b6e0 733a 0512 e938 0b12 7f39 85b1 b6b8
00000070: 10a5 84ba 863d d337 c51a 2d3a 4793 7439
00000080: fedd 803a 295b aab9 1085 17ba 28b0 d5b9
00000090: b01c c938 3de6 80ba 9724 693a fad9 33b9
000000a0: c178 193a 5f59 46b6 5b37 47b8 9163 81b9
000000b0: 1402 58b9 720f 0fb8 e568 9b39 f00a 4d3a
000000c0: 473a d9b4 216a 6e3a c83c 9839 7ace b8b9
000000d0: b9ac 47ba 394c b6b8 13df 313a 01fe fbb8
000000e0: 7e11 16ba 8c23 313a 3aca 643a 0525 7aba
000000f0: 13ea 113a 8930 853a 4c92 58b8 62a4 373a
-0.00028688065 -5.7933714e-05 0.00081432326 0.0009867122 -0.00038111277 0.00021070197 0.0003020068 0.00081008044
0.00070824055 -0.0003095105 0.0003876476 -0.00056397886 0.0006840493 0.000582819 0.00048426294 -0.0006618325
0.00078989466 -0.0007729502 -0.0003997564 -0.0005789366 -0.0009957418 -0.00024915134 0.0004241382 0.00016662237
0.0009303199 0.00011113662 0.00024325417 -8.711502e-05 -0.0010119993 2.518181e-05 0.0006603415 0.00023324518
0.0009831784 -0.00032492846 -0.0005780021 -0.00040757773 9.58977e-05 -0.0009834241 0.0008893697 -0.00017151973
0.00058544806 -2.955632e-06 -4.749685e-05 -0.0002467898 -0.0002060014 -3.410824e-05 0.00029642056 0.0007821759
-4.0461802e-07 0.0009094794 0.00029036985 -0.00035249052 -0.0007616985 -8.692634e-05 0.0006785255 -0.000120159246
-0.00057246524 0.0006757311 0.0008727644 -0.00095422595 0.0005566191 0.0010161559 -5.1634663e-05 0.0007005391

exp_avg_sq f4 [1, 64]
00000000: fcf4 f035 d6af db33 bb9e 7b37 c454 b937
00000010: 6d5a 5736 9df3 7e35 be8c 1436 86da 7837
00000020: 3953 4537 8b78 0c36 fe78 5e36 fa99 fb36
00000030: a7b0 3037 ca56 0637 b3c9 ba36 7eae 2c37
00000040: 568f 6c37 bf20 6237 3c2e 8036 38fc fb36
00000050: afb7 c137 6d09 b435 cdf6 8f36 8865 1b35
00000060: 4689 a437 101e 8434 0a91 aa35 2106 1c34
00000070: a323 c337 a0a8 0932 ba92 2437 751f 9d35
00000080: 15e9 bc37 4951 1b36 4727 0437 5df8 7636
00000090: 3283 3d34 1112 bd37 c658 9637 0565 4735
000000a0: 8cce 0737 64ea 0331 6765 9c33 1197 b035
000000b0: 3f63 7335 ef77 3733 0bd0 0036 8f4a 7037
000000c0: c87a 4731 8336 9d37 b1bd f635 e016 3736
000000d0: 96d7 5b37 bedb 1a34 8b9a 2d37 757a 9b34
000000e0: 61c8 0137 ea0b 3437 daa6 9037 01fc b137
000000f0: 7cce f536 b09e c937 15da 3f33 1146 4137
1.7952693e-06 1.02299666e-07 1.4997723e-05 2.209319e-05 3.2090131e-06 9.497688e-07 2.2135641e-06 1.4832831e-05
1.1761492e-05 2.093179e-06 3.3151005e-06 7.498308e-06 1.0531548e-05 8.00723e-06 5.566713e-06 1.0292626e-05
1.4100069e-05 1.3478274e-05 3.8200797e-06 7.509745e-06 2.3092927e-05 1.3413788e-06 4.2904635e-06 5.7889747e-07
1.9614246e-05 2.460879e-07 1.2708199e-06 1.4530862e-07 2.3262406e-05 8.01279e-09 9.809324e-06 1.1706567e-06
2.2519884e-05 2.3144114e-06 7.876958e-06 3.6801423e-06 1.7649725e-07 2.2538969e-05 1.7922732e-05 7.428028e-07
8.0947175e-06 1.9196245e-09 7.282761e-08 1.3156988e-06 9.0668976e-07 4.2717087e-08 1.9194583e-06 1.4322474e-05
2.9028104e-09 1.8741242e-05 1.8383636e-06 2.728244e-06 1.3103612e-05 1.442231e-07 1.0347586e-05 2.89601e-07
7.7356535e-06 1.073161e-05 1.7243834e-05 2.1217393e-05 7.325607e-06 2.4034962e-05 4.4668997e-08 1.152001e-05
