slack.pth (torch, 26297 bytes, 11 tensors)

conv1.lin.weight f4 [64, 2]
0	0x3e214703	0.15749745
1	0x3f30a2c5	0.68998367
2	0xbe806956	-0.25080365
3	0xbf047e84	-0.5175555
4	0xbe29b0a2	-0.16571286
5	0xbf0240de	-0.5088023
6	0x3e5d4f00	0.21612167
7	0x3f1ac562	0.6045743
8	0xbf4a9146	-0.7912792
9	0x3f4ca8f5	0.7994531
10	0x3e315a4e	0.17319605
11	0xbf4badb8	-0.7956195
12	0x3dbf0275	0.093266405
13	0x3eb0151b	0.34391102
14	0x3cc56571	0.024096223
15	0x3f278aa3	0.6544592
16	0x3ec1746d	0.37784138
17	0xbf1905a9	-0.5977426
18	0xbe77aab1	-0.24186207
19	0x3ecd5e02	0.40110785
20	0x3d37f83c	0.04491447
21	0x3f51c55b	0.81941766
22	0xbf32a93c	-0.6978948
23	0x3f3b5891	0.73182017
24	0x3f00c0fb	0.50294465
25	0xbead2a00	-0.33821106
26	0xbeb665b4	-0.35624468
27	0x3f2db29c	0.6785066
28	0xbf5804a2	-0.8438207
29	0x3f5716aa	0.8401896
30	0x3e824e9b	0.25450596
31	0xbf701a57	-0.9379019
32	0x3e1d317e	0.15350911
33	0xbf5f428a	-0.87210906
34	0xbddb9aa6	-0.10722856
35	0xbe64ce60	-0.22344351
36	0xbed16d1e	-0.40903562
37	0x3e3fdcda	0.18736592
38	0x3d7d8a2a	0.06189934
39	0xbf48b6b5	-0.7840379
40	0x3edb7170	0.42859983
41	0xbf6663b8	-0.8999591
42	0xbf527ddd	-0.822233
43	0x3ef19e8d	0.47191277
44	0x3dc43595	0.095805325
45	0x3db6ae1d	0.08919928
46	0xbe34abac	-0.17643613
47	0x3f390af8	0.7228236
48	0xbf65999a	-0.896875
49	0x3eda20aa	0.42603046
50	0xbefe28cf	-0.4964051
51	0xbee59aa6	-0.4484455
52	0x3e31698b	0.17325418
53	0x3d781ad5	0.060572464
54	0xbf053fa3	-0.52050227
55	0x3ee70ce4	0.45127022
56	0x3e812c7e	0.25229257
57	0x3ee518a5	0.44745365
58	0x3f4ee7f0	0.8082266
59	0x3ec32274	0.38112223
60	0xbe17befb	-0.14818947
61	0xbd94c715	-0.072645344
62	0xbf14a79d	-0.5806826
63	0xbe3c3663	-0.18380122
64	0x3e863fda	0.2622059
65	0xbececd8a	-0.4039119
66	0x3ec07d7a	0.3759573
67	0x3ec06bb3	0.37582168
68	0x3e556753	0.20840196
69	0x3f772ac0	0.96549606
70	0x3f4d1cef	0.80122274
71	0xbecfb9e6	-0.40571517
72	0x3f3c15c7	0.7347073
73	0xbf5a7285	-0.8533099
74	0x3f36445f	0.71198076
75	0x3ecfcfcf	0.40588233
76	0x3dafeb9e	0.08589862
77	0xbf23c08f	-0.63965696
78	0x3f6e849b	0.9317109
79	0xbf257bc6	-0.6464199
80	0x3ea5a537	0.3235261
81	0x3e9930e4	0.29920113
82	0xbddb2f2f	-0.10702359
83	0x3ded712f	0.11593854
84	0xbef8a55c	-0.4856366
85	0x3cbe0d01	0.02319956
86	0xbe339c8b	-0.17540185
87	0x3f1417cd	0.5784882
88	0x3f704ac8	0.9386411
89	0xbf2e53ed	-0.6809681
90	0xbf8187df	-1.011959
91	0xbe78e08e	-0.24304411
92	0x3e5012c9	0.20319666
93	0xbda02d9c	-0.07821199
94	0xbdf9adc4	-0.12191346
95	0x3ec77cea	0.3896249
96	0x3ed664d6	0.41873807
97	0xbf273e24	-0.65329194
98	0xbf4a7910	-0.79090977
99	0x3e72d3e5	0.23713644
100	0xbe7d0d17	-0.24712025
101	0xbf004375	-0.5010293
102	0xbecba40c	-0.39773595
103	0x3f59606d	0.8491276
104	0xbe30f631	-0.17281415
105	0xbef9c0ac	-0.4877981
106	0xbf15ca8c	-0.58512187
107	0x3f1dd886	0.61658514
108	0xbebb6f5e	-0.36608404
109	0x3e651d6a	0.22374502
110	0xbe9bb996	-0.30415028
111	0x3ecc1230	0.39857626
112	0xbec0d60e	-0.3766331
113	0x3de08199	0.10962219
114	0xbec1d814	-0.37860167
115	0x3e29b9ad	0.16574736
116	0x3e4cb9ee	0.19992802
117	0xbed257ad	-0.41082516
118	0x3ecb0812	0.39654595
119	0x3e45d5aa	0.19319788
120	0x3f5321cc	0.82473445
121	0x3be7db37	0.007075693
122	0x3ea27d22	0.31736094
123	0x3f4f3cd8	0.80952215
124	0xbe25c236	-0.16187367
125	0x3f0e9ff0	0.55712795
126	0xbe023063	-0.1271377
127	0xbe37aab6	-0.17936215

conv1.lin.bias f4 [64]
0	0xbe4505a1	-0.19240429
1	0xbf00f7d4	-0.50378156
2	0x3b4068d7	0.0029359364
3	0x3e82ef23	0.25573072
4	0x3e84b92e	0.2592253
5	0x3c02fe4e	0.007995201
6	0x3ea90346	0.3301031
7	0x3e0e4223	0.13892417
8	0x3ec86958	0.3914287
9	0x3e8ecbaa	0.27889758
10	0x3e59b672	0.21261004
11	0xbea1e3a1	-0.3161898
12	0x3e531b07	0.20615779
13	0x3d6c64e7	0.057713415
14	0xbdbe2f87	-0.09286409
15	0xbeed3f8d	-0.46337548
16	0x3f063fb0	0.5244093
17	0x3f23d35a	0.6399437
18	0x3ec6ecdd	0.38852587
19	0x3f0df1d1	0.5544711
20	0xbef88324	-0.48537552
21	0x3e5b517d	0.21417804
22	0x3f17f3ba	0.5935627
23	0xbdb9d4bb	-0.09073778
24	0xbe8f14e8	-0.27945638
25	0x3f01b897	0.50672287
26	0x3eabfe7a	0.33592588
27	0x3e9b36b9	0.30315188
28	0xbea606ab	-0.32426962
29	0xbf283c7e	-0.65717304
30	0x3ef062a6	0.46950263
31	0xbf153f9b	-0.5830018
32	0x3e814b4a	0.25252753
33	0xbe12964d	-0.14315148
34	0x3ec6dcb7	0.38840267
35	0xbed0df41	-0.4079533
36	0xbe5c4c2a	-0.2151343
37	0x3f1ff3cc	0.6248138
38	0xbf279854	-0.6546681
39	0xbdc67b89	-0.09691531
40	0x3f0838ec	0.53211856
41	0xbf250afb	-0.6446988
42	0xbec0c672	-0.37651402
43	0x3eb50ad3	0.3535982
44	0xbea73391	-0.3265653
45	0xbf06145f	-0.52374834
46	0xbf292287	-0.6606831
47	0xbf0ac540	-0.5420723
48	0x3ea72915	0.3264853
49	0xbe02ffa3	-0.1279283
50	0x3ef19e90	0.47191286
51	0xbddd1f36	-0.10796969
52	0x3eaf2701	0.34209445
53	0x3cc1a98a	0.023640413
54	0xbeba8928	-0.36432767
55	0xbe492ae6	-0.1964527
56	0xbe79586c	-0.24350137
57	0x3efae6bc	0.4900416
58	0xbcfe1cf2	-0.031019662
59	0xbf02449c	-0.5088594
60	0xbe459f75	-0.1929911
61	0xbef0f5b7	-0.47062466
62	0x3e82a051	0.25512937
63	0x3c81fc8c	0.015867494

conv2.lin.weight f4 [64, 64]
0	0xbd22e608	-0.039770156
1	0xbdd0a260	-0.101872206
2	0x3d659200	0.05604744
3	0x3de936b0	0.11387384
4	0xbd9394c6	-0.07206111
5	0xbda5db0c	-0.080984205
6	0x3d304a3c	0.043039545
7	0xbcf324d8	-0.029680654
8	0x3dae7ebc	0.085202664
9	0xbda0f96a	-0.07860072
10	0xbd3e37bc	-0.04643987
11	0xbc8c6bc0	-0.017141223
12	0x3cebd980	0.028790236
13	0x3c4d5580	0.012532592
14	0x3dea96be	0.11454533
15	0x3db00072	0.08593835
16	0x3d1f3930	0.038872898
17	0xbce48f18	-0.027900264
18	0xbd205d3c	-0.039151415
19	0xbcd19048	-0.025581494
20	0xbd70ce94	-0.05879076
21	0x3cfb4bf8	0.030675873
22	0x3dd2d6fc	0.10294911
23	0x3dceceee	0.100980625
24	0xbd797064	-0.0608982
25	0x3ccaeb28	0.024770334
26	0x3dd45b2a	0.10368951
27	0x3b8045c0	0.003914565
28	0xbd8a9fca	-0.067687586
29	0xbdc86668	-0.097851574
30	0x3deade60	0.11468196
31	0x3dc81906	0.09770398
32	0xbccefc18	-0.025266692
33	0x3d30ce64	0.04316558
34	0xbdfb98a0	-0.1228497
35	0xbddbd8c4	-0.10734704
36	0xbd8eebfe	-0.06978606
37	0x3d279b34	0.040919498
38	0x3c809ab0	0.01569876
39	0xbdc93e72	-0.098263636
40	0x3ae32e80	0.0017332584
41	0xbde1e5c8	-0.110301554
42	0x3c137120	0.008999139
43	0xbd8adbf0	-0.06780231
44	0xbd332858	-0.043739647
45	0xbdd9fdbe	-0.106441006
46	0xbcd1e310	-0.025620967
47	0xbd7ef0bc	-0.0622413
48	0xbd8d5f4c	-0.06902942
49	0xbde4d0c0	-0.111726284
50	0xbd22d598	-0.03975448
51	0xbda64e4e	-0.08120404
52	0x3d8559a6	0.0651124
53	0xbdcec2a4	-0.100957185
54	0x3c4b5720	0.012410909
55	0xbc84e200	-0.016221046
56	0x3db174a8	0.086648285
57	0x3c5cd240	0.013477862
58	0x3cd02330	0.025407404
59	0x3c8b2578	0.01698564
60	0x3decea1e	0.11568092
61	0x3dfeaf26	0.12435751
62	0x3d19d6c8	0.037558347
63	0xbd95515a	-0.07290907
64	0xbd7c0a40	-0.061533213
65	0x3d847cf2	0.06469144
66	0xbd596db0	-0.05308312
67	0x3d74fdd0	0.059812367
68	0xbb02d940	-0.0019965917
69	0x3cdacb98	0.02670841
70	0x3df29cda	0.11846323
71	0xbd4032d8	-0.04692349
72	0xbdfcf64c	-0.12351665
73	0xbd73fcf8	-0.05956742
74	0x3d8d4f5e	0.06899904
75	0xbd29d00c	-0.041458175
76	0xbd8714b2	-0.06595744
77	0x3c172b10	0.0092265755
78	0x3dbed7e6	0.09318523
79	0xbc3cb780	-0.011518359
80	0xbd11b2bc	-0.035570845
81	0xbddc6382	-0.10761167
82	0xbdc3d3d6	-0.09561889
83	0xbdccb672	-0.09995736
84	0xbdcc4f56	-0.0997607
85	0x3c04e890	0.008112088
86	0xbbb12da0	-0.0054070503
87	0x3da944ba	0.08265062
88	0xbcf26828	-0.029590681
89	0x3d5ca6a4	0.05386986
90	0x3dfb39a6	0.12266855
91	0x3b0dcac0	0.002163574
92	0xbdc5527e	-0.09634875
93	0xbde989ea	-0.11403258
94	0xbcdee998	-0.027210996
95	0x3ca9fe88	0.020751253
96	0x3d2a2d4c	0.041547105
97	0x3ddd010c	0.10791215
98	0xbdb2bfd4	-0.087279946
99	0x3c99fd68	0.018797591
100	0xbdeae4e4	-0.11469439
101	0xbc78b8f0	-0.015180811
102	0x3dcdea82	0.100544944
103	0x3c90b390	0.017663747
104	0xbdc1cf84	-0.094634086
105	0x3de8f9a4	0.1137574
106	0xbd6489b8	-0.0557954
107	0xbd2c8d44	-0.04212691
108	0x3ca2c920	0.019871294
109	0xbcc75520	-0.024332583
110	0x3c63f5b0	0.013913557
111	0x3cc83850	0.024440914
112	0xbd899cac	-0.06719336
113	0xbd328120	-0.043580174
114	0x3d5f3fcc	0.0545042
115	0x3dbc535a	0.091955855
116	0x3dc6db6e	0.09709822
117	0x3d9eb562	0.0774944
118	0x3da34c1c	0.07973501
119	0x3dedd6d2	0.11613239
120	0xbca15f90	-0.019698888
121	0xbc939538	-0.018015489
122	0x3ba04e40	0.0048921406
123	0x3dd2954e	0.10282384
124	0xbdf41d44	-0.119196445
125	0xbd12cb04	-0.035838142
126	0xbcc579d0	-0.024105936
127	0xbd8b2d1c	-0.06795713
128	0x3d863f12	0.065549985
129	0xb9d22c00	-0.00040087104
130	0x3cf562c8	0.02995433
131	0x3d84c3fa	0.06482692
132	0xbce5e9c0	-0.028065562
133	0xbd6615bc	-0.05617307
134	0xbddb7dc4	-0.10717347
135	0xbdd05be6	-0.10173778
136	0xbdb5d3f4	-0.088783175
137	0xbdaf9df8	-0.08575052
138	0x3d241ed4	0.040068462
139	0x3cabb5b0	0.020960659
140	0x3d675430	0.05647677
141	0x3db10ff0	0.08645618
142	0x3d72a784	0.059241787
143	0x3dcc647a	0.09980102
144	0x3cdecf00	0.027198315
145	0xbdc4791e	-0.09593414
146	0xbdc43eae	-0.09582268
147	0x3db98d74	0.09060183
148	0x3dd47a9a	0.10374947
149	0xbdd5b4b0	-0.10434854
150	0xbc422780	-0.011850238
151	0x3dbe7c74	0.09301081
152	0xbde1f6fa	-0.11033435
153	0x3dff5ee2	0.12469269
154	0xbd81e12c	-0.06341776
155	0x3d461638	0.048361033
156	0x3df72588	0.120677054
157	0xbdb760cc	-0.089540094
158	0xbcfea0d8	-0.031082556
159	0xbdfb80ae	-0.12280403
160	0x3c82d3c0	0.01597011
161	0x3de45ee6	0.11150913
162	0xbd6d603c	-0.057953104
163	0x3ddc09de	0.107440695
164	0x3db4a8dc	0.0882127
165	0x3dc974b6	0.09836714
166	0x3dd39cea	0.10332663
167	0x3d9e759c	0.07737276
168	0xbdd842e8	-0.10559636
169	0xbd3766fc	-0.044775948
170	0x3dbd9128	0.09256202
171	0x3d85dffc	0.06536862
172	0x3d406580	0.046971798
173	0x3d90ea5a	0.07075949
174	0xbd3b2864	-0.045692816
175	0x3c85d4c0	0.016336799
176	0xbdf1c25c	-0.11804649
177	0xbd97de64	-0.074154645
178	0xbde92524	-0.11384037
179	0x3ca80180	0.020508528
180	0x3dd4341a	0.103615
181	0x3d576f68	0.05259648
182	0x3cd3ca10	0.025853187
183	0x3de343ea	0.11096938
184	0xbdf6ad2c	-0.12044749
185	0xbdd4fed6	-0.104001686
186	0x3ddf1d8e	0.10894309
187	0xbcd4fc60	-0.025999248
188	0xbd192eb8	-0.03739807
189	0xbdaf8f3a	-0.0857224
190	0xbd995ff6	-0.07489006
191	0x3dbd2aee	0.09236704
192	0xbbc1aa60	-0.005910203
193	0xbcc2e3d0	-0.02379027
194	0x3ddddbd6	0.10832946
195	0xbde41942	-0.1113763
196	0x3c058190	0.008148566
197	0x3d554fe8	0.052078158
198	0xbda45b5e	-0.080252394
199	0xbd8e8bc0	-0.06960249
200	0xbdb351a8	-0.08755809
201	0xbd4078e0	-0.046990275
202	0xbdf979b4	-0.12181416
203	0x3b969340	0.0045951903
204	0x3d43f740	0.047843218
205	0x3ce069d8	0.02739422
206	0xbddeeac2	-0.1088462
207	0x3cb604c0	0.022219062
208	0x3c53ebf0	0.01293467
209	0x3cfc99e0	0.030835092
210	0xbd7b8c68	-0.0614132
211	0x3cb8e380	0.022569418
212	0x3df0b248	0.117527544
213	0x3d904810	0.07044995
214	0x3dd770be	0.10519551
215	0x3d6c32f4	0.05766578
216	0xbd92c1d8	-0.07165879
217	0x3d59681c	0.053077802
218	0x3d52b674	0.051443532
219	0xbd79bae8	-0.060969263
220	0x3caa79a0	0.020809948
221	0x3d38aa70	0.045084417
222	0xbd983c1a	-0.074333385
223	0x3d4378a8	0.04772249
224	0x3ce517a8	0.027965382
225	0xbd904fbe	-0.070464596
226	0x3d387384	0.04503204
227	0x3dd68838	0.104752004
228	0xbdc4f744	-0.09617475
229	0xbd861274	-0.065464884
230	0xbdb43e82	-0.08800985
231	0x3d855766	0.065108106
232	0x3c3fde00	0.011710644
233	0xbd2f9140	-0.04286313
234	0x3d9764ca	0.07392271
235	0x3d2fc390	0.042911112
236	0xbd67b364	-0.056567565
237	0x3d94fb0e	0.072744474
238	0xbd47169c	-0.048605546
239	0x3dc9e4dc	0.098581046
240	0xbdabee68	-0.08395082
241	0x3d268370	0.040652692
242	0x3c645bf0	0.013937935
243	0x3d1276b8	0.03575775
244	0x3ba63fc0	0.0050735176
245	0xbd1cbd0c	-0.038266227
246	0x3c389530	0.011266038
247	0x3d51a0fc	0.051178917
248	0xbdff39b4	-0.12462178
249	0x3c1f4220	0.009720355
250	0xbd70601c	-0.058685407
251	0x3ba560a0	0.005046919
252	0x3de23cd4	0.11046758
253	0x3daf94f4	0.085733324
254	0xbbe9b140	-0.0071317255
255	0x3da3a700	0.07990837

conv2.lin.bias f4 [64]
0	0x3d1bc944	0.03803374
1	0xbd716170	-0.058930814
2	0xbdd3bd14	-0.10338798
3	0x3dab8c56	0.08376376
4	0x3bd7cc20	0.006585613
5	0xbbb8a240	-0.005634576
6	0x3dd1a9aa	0.10237439
7	0x3d2155ac	0.039388344
8	0xbda1555a	-0.07877608
9	0x3c196190	0.00936164
10	0x3da7a65a	0.08186026
11	0x3d6c985c	0.05776249
12	0x3d8767ce	0.06611596
13	0xba767200	-0.00094011426
14	0xbcf8ea30	-0.030385107
15	0xbd564274	-0.05230947
16	0x3d7894c4	0.06068875
17	0xbdb98c10	-0.09059918
18	0xbdc082c4	-0.093999416
19	0x3b91df00	0.0044516325
20	0xbddab852	-0.106796876
21	0x3c596950	0.013269737
22	0x3c82bce0	0.015959203
23	0xbce6ef48	-0.02819027
24	0xbd19bad0	-0.037531674
25	0xbd79a6d8	-0.06095013
26	0x3dc2bb5c	0.09508392
27	0xbdb4db80	-0.08830929
28	0xbda8cf98	-0.0824272
29	0x3b4d3540	0.0031312257
30	0xbd4a4ae0	-0.049387813
31	0x3c849c10	0.016187698
32	0x3c99ad08	0.018759266
33	0xbda78014	-0.08178726
34	0x3c7e97a0	0.01553908
35	0x3dd67c02	0.10472871
36	0xbcc65370	-0.024209708
37	0x3ccd7e50	0.025084645
38	0xbdd500ba	-0.10400529
39	0xbda51672	-0.08060922
40	0xbb988f40	-0.0046557486
41	0x3d0a6754	0.033789948
42	0xbd5d6a8c	-0.05405669
43	0x3df5ce84	0.1200228
44	0x3deb09fe	0.11476515
45	0xbddd4c7c	-0.10805604
46	0x3dc97d9c	0.09838411
47	0x3cd29260	0.025704563
48	0x3db3780a	0.0876313
49	0xbdfbd646	-0.12296729
50	0x3cedfde8	0.029051736
51	0x3bc04460	0.005867526
52	0xbc4ff340	-0.012692273
53	0x3dae6466	0.08515243
54	0xbd4d7a24	-0.05016531
55	0xbc7bc530	-0.015366837
56	0xbd3c16c0	-0.045920134
57	0x3d9a0b74	0.07521716
58	0xbddbe7fa	-0.107376054
59	0xbb267280	-0.0025397837
60	0x3da70424	0.08155087
61	0x3d086a84	0.033304706
62	0x3cb7f380	0.022454977
63	0xbd3db198	-0.046311945

lin.weight f4 [1, 64]
0	0xbd21d37f	-0.03950834
1	0x3d197dd0	0.0374735
2	0x3db6ec1d	0.08931754
3	0xbddf4e29	-0.1090358
4	0xbe8b8580	-0.2725029
5	0x3df7aa0b	0.1209298
6	0x3cb09884	0.0215571
7	0xbe228b63	-0.15873484
8	0x3e800679	0.25004938
9	0xbe929230	-0.28627157
10	0xbda02564	-0.07819632
11	0xbe99f912	-0.30072838
12	0x3e8a5e67	0.27025148
13	0xbe8ad4e1	-0.2711554
14	0xbe8ce871	-0.2752109
15	0x3e3e10c7	0.18561088
16	0x3e668452	0.22511414
17	0xbb9672b2	-0.0045913095
18	0xbe08d247	-0.13361464
19	0x3da13c5d	0.078728415
20	0x3e153377	0.14570414
21	0xbe9a6a66	-0.301593
22	0xbd406f50	-0.046981156
23	0xbe03b677	-0.12862574
24	0xbe14d908	-0.14535916
25	0xbd47907d	-0.04872178
26	0xbd291f97	-0.041289892
27	0xbdd43a4d	-0.103626825
28	0x3bc7122f	0.0060751657
29	0x3d5805df	0.052739974
30	0xbc0c0d4d	-0.008548093
31	0xbdb629ac	-0.08894667
32	0x3dd85c89	0.10564525
33	0x3c871062	0.016487304
34	0xbd830f58	-0.06399411
35	0x3e072025	0.13195856
36	0x3eae0b19	0.33992842
37	0x3d0f0065	0.034912486
38	0x3d03fc39	0.03222296
39	0x3e9d436f	0.3071551
40	0xbd67bc03	-0.056575786
41	0x3cb394a5	0.021921465
42	0xbdd6b707	-0.104841284
43	0xbe403f61	-0.18774177
44	0x3eb60002	0.3554688
45	0xbdbb54cc	-0.09147033
46	0x3d8d7ed0	0.06908953
47	0xbd5e0ec0	-0.054213285
48	0x3e90d79b	0.28289494
49	0xbe2a6b2f	-0.1664245
50	0x3e1ddf0e	0.1541712
51	0xbe931efd	-0.2873458
52	0x3dde808a	0.10864361
53	0xbe1da59d	-0.15395208
54	0xbe3d99eb	-0.18515746
55	0xbe248f96	-0.16070399
56	0xbe579a34	-0.21054918
57	0xbe34db52	-0.17661789
58	0x3e85be1b	0.261216
59	0x3cfa9b1f	0.030591546
60	0x3e85116f	0.25989863
61	0xbdc40c25	-0.09572629
62	0xbd962c1a	-0.073326305
63	0xbb16c729	-0.0023006892

exp_avg f4 [64, 2]
0	0xb8aa73c6	-8.127796e-05
1	0xb881bcca	-6.186364e-05
2	0x37dda5e2	2.6422498e-05
3	0x37b8cac3	2.2028928e-05
4	0x3932298c	0.0001699088
5	0x39093956	0.00013086697
6	0xb8ffd6f4	-0.00012199386
7	0xb8cf66c8	-9.889674e-05
8	0xba361c4e	-0.0006946967
9	0xba0693a5	-0.0005133695
10	0x398bdb02	0.0002667532
11	0x39526e5b	0.00020068271
12	0x381b95c5	3.7094364e-05
13	0x37efb6a0	2.8576062e-05
14	0xb98cb4c6	-0.00026837568
15	0xb95a9346	-0.00020844964
16	0x3a17c41d	0.0005789416
17	0x39db93a2	0.0004188093
18	0xba2bae1d	-0.0006549077
19	0xba012448	-0.0004926366
20	0xb8cb4b46	-9.693815e-05
21	0xb8a35aa1	-7.7893266e-05
22	0xba1cb79c	-0.00059782877
23	0xb9e05db7	-0.00042794432
24	0x3a0e72db	0.0005433985
25	0x39d29dd1	0.00040171904
26	0xba309f30	-0.0006737588
27	0xba031b09	-0.0005001282
28	0xba2214a5	-0.0006182886
29	0xb9e8a827	-0.00044375772
30	0x39623a64	0.00021574792
31	0x39361862	0.00017365956
32	0x3a1f9108	0.000608698
33	0x39e831ed	0.00044287686
34	0xb6f28d97	-7.2286452e-06
35	0xb6af2ef5	-5.220873e-06
36	0xb9aff160	-0.0003355844
37	0xb983742c	-0.00025072822
38	0x39608fcd	0.00021415875
39	0x3923cac7	0.00015620432
40	0x396c26d4	0.00022521178
41	0x3938abed	0.00017611655
42	0xba37448b	-0.00069911097
43	0xba096509	-0.00052411907
44	0xb88c0e49	-6.678381e-05
45	0xb853d7ff	-5.0507482e-05
46	0xb9a3d12e	-0.00031245634
47	0xb973e834	-0.00023260788
48	0xb9367389	-0.00017399913
49	0xb9082de9	-0.00012987074
50	0xb8f2d029	-0.00011578232
51	0xb8b931bc	-8.830751e-05
52	0xb89a6bdf	-7.363385e-05
53	0xb868fac8	-5.554667e-05
54	0xb987e1c7	-0.00025917424
55	0xb94ae897	-0.00019350868
56	0x37863bdd	1.600192e-05
57	0x375044c4	1.2413777e-05
58	0x38f1dc55	0.000115328156
59	0x38bb2ad3	8.9248315e-05
60	0xb78f90ff	-1.7114447e-05
61	0xb7543fdc	-1.2651053e-05
62	0xb8472b77	-4.7485777e-05
63	0xb8206d9d	-3.8249058e-05
64	0x3988d3f8	0.0002609787
65	0x3948b06e	0.00019139212
66	0x3813e1a8	3.525769e-05
67	0x37e61640	2.7428498e-05
68	0xb8099886	-3.2805394e-05
69	0xb7febe0e	-3.036766e-05
70	0x39abf3a9	0.00032797203
71	0x398181f7	0.0002470163
72	0x3a6348d5	0.00086702156
73	0x3a2798b3	0.00063932984
74	0x37016c6b	7.714242e-06
75	0x36eb7d23	7.0181136e-06
76	0x37ea88e6	2.7958722e-05
77	0x37bfc8bf	2.2862454e-05
78	0x3a2d44b6	0.0006609665
79	0x39fff200	0.00048817694
80	0xb840c380	-4.595844e-05
81	0xb81a6b96	-3.681666e-05
82	0x380e8927	3.398317e-05
83	0x37d28e3f	2.510019e-05
84	0xb909cf11	-0.00013142476
85	0xb8d305c9	-0.000100623416
86	0xb9ae3533	-0.00033227503
87	0xb9860d90	-0.00025568577
88	0x3a660b7f	0.0008775517
89	0x3a2b65c2	0.00065382954
90	0xb7834873	-1.5650154e-05
91	0xb777c357	-1.4767828e-05
92	0x390f14c5	0.0001364528
93	0x38d4eb06	0.00010152724
94	0xb903c0ba	-0.0001256493
95	0xb8c01c52	-9.1605485e-05
96	0x3a329f3d	0.00068138895
97	0x3a01368a	0.00049290864
98	0xb97b2825	-0.0002395218
99	0xb9407c43	-0.00018356838
100	0x39d1ae85	0.00039993614
101	0x399c58dc	0.00029820844
102	0xba43c850	-0.00074685086
103	0xba0f860b	-0.0005474991
104	0x39901a64	0.00027485483
105	0x395760ec	0.00020540104
106	0xb9cab4e2	-0.0003866321
107	0xb9949854	-0.00028342253
108	0xb9b16638	-0.0003383623
109	0xb9837897	-0.00025076114
110	0xb9cf204f	-0.00039506188
111	0xb998226f	-0.00029017354
112	0xb9ce2a3c	-0.0003932285
113	0xb99acaff	-0.00029524413
114	0xb9e1c1a5	-0.0004305962
115	0xb9a877bc	-0.00032132666
116	0x3a2bece5	0.00065584324
117	0x39ffd4e6	0.00048796012
118	0x38a0b2ef	7.6627235e-05
119	0x38709e69	5.736799e-05
120	0x39e98c3c	0.00044545706
121	0x39b8bfaa	0.00035238016
122	0xb95ddd4c	-0.00021158642
123	0xb927d44b	-0.00016005446
124	0xb915f2fa	-0.00014300263
125	0xb8e4aa04	-0.00010903555
126	0xb706c5b6	-8.033056e-06
127	0xb6cf6782	-6.1811306e-06

exp_avg_sq f4 [64, 2]
0	0x33b620bd	8.4809905e-08
1	0x3372ed48	5.6560822e-08
2	0x32a41da0	1.9105585e-08
3	0x3265ec84	1.3383332e-08
4	0x34f1e987	4.5059662e-07
5	0x34a47d30	3.0638466e-07
6	0x34a14c6c	3.004419e-07
7	0x3457a277	2.008254e-07
8	0x36ed3494	7.0692713e-06
9	0x369fca85	4.7621456e-06
10	0x35735d3a	9.0660217e-07
11	0x351e48ba	5.896542e-07
12	0x333ef956	4.4464592e-08
13	0x339f493b	7.417335e-08
14	0x35958a53	1.1141623e-06
15	0x3540fffd	7.1898086e-07
16	0x36b828ad	5.4883626e-06
17	0x36874878	4.03175e-06
18	0x36d91274	6.469252e-06
19	0x36948eee	4.427383e-06
20	0x342119e4	1.5003712e-07
21	0x33c30f82	9.083216e-08
22	0x36e92df0	6.949289e-06
23	0x36ae9867	5.203346e-06
24	0x36b51df2	5.3977064e-06
25	0x36821d0c	3.8776834e-06
26	0x36d67f4f	6.3925177e-06
27	0x3690b2d5	4.312353e-06
28	0x36e83892	6.9207244e-06
29	0x36a7a2cd	4.9959403e-06
30	0x354ef583	7.7098247e-07
31	0x34f66812	4.5896792e-07
32	0x369ff8ba	4.767525e-06
33	0x3666a3b7	3.4367965e-06
34	0x31a67024	4.8439848e-09
35	0x3236dd03	1.06440465e-08
36	0x35f2d6f9	1.809297e-06
37	0x35a8a6f3	1.2565564e-06
38	0x35248f7f	6.1303575e-07
39	0x34e7ec23	4.3198915e-07
40	0x353ad38d	6.9598246e-07
41	0x34e6b840	4.2974898e-07
42	0x370cd3c5	8.393957e-06
43	0x36c3afe3	5.831929e-06
44	0x33b8517b	8.582989e-08
45	0x33a178aa	7.5190954e-08
46	0x35ab091f	1.2743147e-06
47	0x3563d8e4	8.487971e-07
48	0x3542db6b	7.2589927e-07
49	0x350e0d9f	5.2918944e-07
50	0x346ca0bb	2.2037686e-07
51	0x343d939f	1.7655701e-07
52	0x34066004	1.2514653e-07
53	0x34298c61	1.5790421e-07
54	0x358e431e	1.0599358e-06
55	0x35522fc6	7.8300616e-07
56	0x3287ffa7	1.5832326e-08
57	0x331e11ec	3.680354e-08
58	0x345d7f65	2.0628575e-07
59	0x3416ff8f	1.406281e-07
60	0x326799a1	1.3480901e-08
61	0x328d7b50	1.6470636e-08
62	0x33a2d256	7.581973e-08
63	0x33831065	6.103145e-08
64	0x3590889d	1.0768596e-06
65	0x354dbf8c	7.664719e-07
66	0x32a88381	1.9617575e-08
67	0x32bdb6fb	2.2085706e-08
68	0x33115244	3.3835263e-08
69	0x32a6f57b	1.9436575e-08
70	0x35f406a9	1.8181355e-06
71	0x35b089a3	1.3153079e-06
72	0x37338d4b	1.0702129e-05
73	0x36f0f936	7.1815693e-06
74	0x319d6720	4.5810253e-09
75	0x319d54f1	4.578958e-09
76	0x329041fd	1.6793814e-08
77	0x32886601	1.587887e-08
78	0x370887f8	8.137889e-06
79	0x36c1cdd2	5.775809e-06
80	0x33779d27	5.7652098e-08
81	0x33693e12	5.4305993e-08
82	0x3300489a	2.9868353e-08
83	0x334a07d6	4.7038917e-08
84	0x34bbb500	3.496316e-07
85	0x34871381	2.51599e-07
86	0x35e0ba44	1.6743511e-06
87	0x359219c8	1.0885351e-06
88	0x375280b3	1.25469405e-05
89	0x3710c09d	8.627915e-06
90	0x32f12b56	2.80758e-08
91	0x32c37000	2.275192e-08
92	0x349ed7b4	2.9586738e-07
93	0x3460fa1d	2.0952616e-07
94	0x347f9c18	2.3805512e-07
95	0x34377ea3	1.7089273e-07
96	0x36fa56a4	7.460667e-06
97	0x36b75a7f	5.46436e-06
98	0x359fd6ca	1.1908935e-06
99	0x355f76f7	8.324709e-07
100	0x360f6398	2.1366632e-06
101	0x35d307bf	1.572298e-06
102	0x36fd03b9	7.540421e-06
103	0x36ad649d	5.1675147e-06
104	0x358ccbde	1.0490146e-06
105	0x3548a114	7.4740205e-07
106	0x3620727f	2.3908503e-06
107	0x35e081e2	1.6727101e-06
108	0x360afe9e	2.071181e-06
109	0x35c9afee	1.5026869e-06
110	0x36270c3e	2.4892065e-06
111	0x35eaa1ca	1.7481445e-06
112	0x363b8212	2.7940882e-06
113	0x360812a9	2.027644e-06
114	0x363dcffb	2.8284255e-06
115	0x3603b8e8	1.962815e-06
116	0x36db456a	6.5347895e-06
117	0x3697ae93	4.520474e-06
118	0x34175508	1.4093905e-07
119	0x33d7fdf8	1.0057914e-07
120	0x36724589	3.6101285e-06
121	0x36281f89	2.5052307e-06
122	0x35175ec8	5.638981e-07
123	0x34cacd8c	3.7774987e-07
124	0x349c6f96	2.9138454e-07
125	0x34597b29	2.0254505e-07
126	0x312bd114	2.5002622e-09
127	0x3203b278	7.665783e-09

exp_avg f4 [64]
0	0xb9200385	-0.000152601
1	0x38b55631	8.646807e-05
2	0x39b3d1a4	0.00034297735
3	0xb9aa0ef1	-0.0003243606
4	0xba9e90c5	-0.0012097588
5	0x3a03d36c	0.0005028758
6	0x38a5bbf6	7.9028236e-05
7	0xba16ea7a	-0.00057569856
8	0x3a8511b3	0.001015237
9	0xba9b5bc4	-0.001185291
10	0xb97e652f	-0.00024261021
11	0xba9977c4	-0.0011708667
12	0x3a8e046d	0.0010835059
13	0xba9f3102	-0.0012145343
14	0xba9c56d8	-0.0011927737
15	0x3a09fb3f	0.0005263574
16	0x3a757003	0.00093626993
17	0xb738e907	-1.10215105e-05
18	0xba122852	-0.0005575466
19	0x39ab5149	0.00032676224
20	0x39f223c0	0.00046184473
21	0xbaa7b6c8	-0.0012795562
22	0xb90ccbb2	-0.00013427323
23	0xba134211	-0.00056174496
24	0xb9f25045	-0.00046217642
25	0xb9435915	-0.00018629835
26	0xb91a5218	-0.00014717167
27	0xb9e92f02	-0.00044476247
28	0x37d925dd	2.5886047e-05
29	0x393e1caf	0.00018130497
30	0xb7eaf5ca	-2.8009428e-05
31	0xb946498b	-0.00018910148
32	0x39f33a26	0.00046391896
33	0x388dbd27	6.758636e-05
34	0xb912b30e	-0.00013990348
35	0x3a0ea721	0.0005441774
36	0x3ac7f32f	0.001525497
37	0x3881ae32	6.183646e-05
38	0x3896b917	7.187033e-05
39	0x3aa9691b	0.0012925001
40	0xb90ea956	-0.00013605258
41	0x38822633	6.205998e-05
42	0xb9aa9ea6	-0.0003254313
43	0xba2f3e88	-0.0006685038
44	0x3ac70b95	0.0015185947
45	0xb92c0a22	-0.00016406973
46	0x396a985e	0.0002237274
47	0xb95af4cc	-0.00020881294
48	0x3a9cebe2	0.0011972154
49	0xba17aa43	-0.0005785564
50	0x3a26b8d9	0.0006359942
51	0xbaab9292	-0.0013089946
52	0x39f18302	0.0004606471
53	0xba381283	-0.00070218014
54	0xba31c97d	-0.0006782038
55	0xba3a82b1	-0.00071148115
56	0xba532d8e	-0.00080557994
57	0xba373880	-0.0006989315
58	0x3a9a65d8	0.0011779619
59	0x38f8def9	0.000118670934
60	0x3a72ccfa	0.0009262111
61	0xb9ba8dcf	-0.0003558234
62	0xb992c633	-0.0002799496
63	0xb7693707	-1.3900694e-05

exp_avg_sq f4 [64]
0	0x3459a933	2.0271254e-07
1	0x33869ca8	6.268357e-08
2	0x358f16aa	1.0660926e-06
3	0x356f682e	8.918604e-07
4	0x37634117	1.3545409e-05
5	0x36087478	2.0333373e-06
6	0x33b26b14	8.308248e-08
7	0x363a8e11	2.7798853e-06
8	0x3729d050	1.01216865e-05
9	0x37585a74	1.28956635e-05
10	0x34efba65	4.465284e-07
11	0x37624c8e	1.3488474e-05
12	0x37395b55	1.1048124e-05
13	0x37574f3a	1.2833445e-05
14	0x3762c5cc	1.3516703e-05
15	0x360fdeab	2.143827e-06
16	0x3711a0fb	8.680155e-06
17	0x31ea7262	6.8233e-09
18	0x366247f8	3.3718516e-06
19	0x3595d54d	1.1163444e-06
20	0x35e02be8	1.6702079e-06
21	0x378ca972	1.6768205e-05
22	0x3441c290	1.8045307e-07
23	0x3633ed2e	2.6811135e-06
24	0x35f2a325	1.8077886e-06
25	0x34f0e5b6	4.487062e-07
26	0x34842beb	2.461887e-07
27	0x36076aeb	2.0178802e-06
28	0x32d7eabf	2.5136044e-08
29	0x34ec7638	4.404444e-07
30	0x32b1e814	2.0711049e-08
31	0x348b27a3	2.5919607e-07
32	0x36099fd0	2.0507614e-06
33	0x33433ba1	4.5456208e-08
34	0x341c2d3c	1.4545088e-07
35	0x36669189	3.4357383e-06
36	0x37ad3db9	2.0651949e-05
37	0x32c9b5aa	2.3482091e-08
38	0x33539070	4.925863e-08
39	0x378ad6b7	1.6550866e-05
40	0x3435aa52	1.6918901e-07
41	0x335fa5dc	5.207208e-08
42	0x356b173e	8.7578144e-07
43	0x367ebd3f	3.7959105e-06
44	0x37c7d3f6	2.382135e-05
45	0x342c7be2	1.6063817e-07
46	0x35104295	5.374107e-07
47	0x34e5a87c	4.2777162e-07
48	0x37688c2e	1.3860916e-05
49	0x36469da7	2.9596065e-06
50	0x3688b087	4.0736663e-06
51	0x37795e8b	1.4863569e-05
52	0x360b83ef	2.078941e-06
53	0x369bca18	4.642887e-06
54	0x368ec9c3	4.255418e-06
55	0x36a0980e	4.786073e-06
56	0x36c83362	5.966446e-06
57	0x36accae9	5.1496213e-06
58	0x3757ccf9	1.28627225e-05
59	0x348a1b93	2.5724566e-07
60	0x3715289c	8.890547e-06
61	0x35a98dec	1.2632786e-06
62	0x352f728d	6.5359274e-07
63	0x3198e8b8	4.4502393e-09

exp_avg f4 [1, 64]
0	0x3a4a2519	0.00077112165
1	0xbb4319a0	-0.0029769912
2	0xbaa3ee33	-0.0012506902
3	0x3b194f7e	0.0023393328
4	0x3a2b6505	0.00065381854
5	0xba804f47	-0.0009789251
6	0x3b0ce072	0.0021496085
7	0x3ae349c5	0.0017340711
8	0x3ace2a83	0.0015729222
9	0x3ab26d3e	0.0013612879
10	0x3b10b95b	0.0022083137
11	0xbae5e7ef	-0.0017540435
12	0x3ac4f985	0.0015027976
13	0x3a2359a0	0.00062313117
14	0xba806b45	-0.0009797594
15	0xbb321aeb	-0.002717669
16	0x3a8946ba	0.0010473349
17	0x3b0428f4	0.0020166012
18	0x3a868238	0.0010262197
19	0x3a8fc62b	0.0010969093
20	0xbb24392c	-0.002505849
21	0xb9670c7b	-0.00022034526
22	0x3b2fe631	0.0026840086
23	0x39ffc0ff	0.00048781183
24	0xbb15be7a	-0.0022849129
25	0x38b0a446	8.422932e-05
26	0x3afb6e80	0.0019182712
27	0x3a6612b6	0.0008776592
28	0x3851c9a1	5.0017265e-05
29	0xb823e176	-3.9072205e-05
30	0x3ac8c32d	0.0015316956
31	0xbb51e040	-0.0032024533
32	0x3a89e180	0.0010519475
33	0x3a76811a	0.0009403393
34	0x3b3fd577	0.0029271522
35	0xba0a2c1d	-0.00052708556
36	0xba383ca1	-0.00070280774
37	0x3b5e527e	0.003392368
38	0xbb4db9e6	-0.0031391322
39	0x3a2f88ea	0.0006696122
40	0x3b4238e4	0.002963596
41	0xbb2b6336	-0.0026151664
42	0xbb211438	-0.0024578702
43	0x3b075ab2	0.0020653424
44	0xb9ba00e8	-0.0003547736
45	0xbb5489fb	-0.0032430876
46	0xbb1a7583	-0.0023568578
47	0xbafba99d	-0.0019200329
48	0x3aab4b0b	0.0013068629
49	0xbaf03a76	-0.001832797
50	0x3a011571	0.00049241545
51	0x38b59afa	8.659619e-05
52	0x392ee50e	0.00016679263
53	0xb9729520	-0.00023134472
54	0xbb038857	-0.0020070279
55	0xba710664	-0.00091943727
56	0xbae3217e	-0.0017328707
57	0x3ac1f68d	0.0014798209
58	0xb9cf628d	-0.00039555543
59	0xba5923ba	-0.0008283217
60	0x3a89ed29	0.001052295
61	0x39813313	0.0002464285
62	0x3addad36	0.0016912583
63	0xba19a409	-0.000586093

exp_avg_sq f4 [1, 64]
0	0x37c4ea96	2.3474258e-05
1	0x38de9ebd	0.00010615352
2	0x37f90838	2.968694e-05
3	0x389bfcc5	7.438058e-05
4	0x373a1edf	1.1093652e-05
5	0x37b51cbf	2.1590267e-05
6	0x386d7fcf	5.6624234e-05
7	0x383953a5	4.4185337e-05
8	0x37b5e55e	2.1683689e-05
9	0x37ad5587	2.0663034e-05
10	0x388e7ae7	6.79398e-05
11	0x37fad6de	2.9902378e-05
12	0x37c67678	2.3658606e-05
13	0x37291076	1.0077018e-05
14	0x3780a42b	1.5335236e-05
15	0x38ae61af	8.3151615e-05
16	0x376aff05	1.4006863e-05
17	0x3837474c	4.3697e-05
18	0x372a38b2	1.014599e-05
19	0x37640e01	1.359312e-05
20	0x388ca521	6.706478e-05
21	0x36aba1e4	5.1150437e-06
22	0x389e46c1	7.547206e-05
23	0x3739de46	1.1078611e-05
24	0x38824dde	6.213387e-05
25	0x373651d2	1.0867096e-05
26	0x3832d764	4.2639105e-05
27	0x373809af	1.0969509e-05
28	0x371b0cbb	9.241684e-06
29	0x37635aa0	1.3551355e-05
30	0x37d6257f	2.5528248e-05
31	0x38f7db79	0.00011818758
32	0x372d701f	1.0337709e-05
33	0x37cf9de9	2.4749856e-05
34	0x38ea300d	0.0001116694
35	0x3701b717	7.731628e-06
36	0x3760faf5	1.3409871e-05
37	0x3912b6da	0.00013991763
38	0x38e15103	0.00010743926
39	0x3744ce1c	1.1730499e-05
40	0x38d5f192	0.000102016274
41	0x38919fbe	6.943893e-05
42	0x38901a95	6.8714064e-05
43	0x384c3e78	4.869557e-05
44	0x371045bc	8.599305e-06
45	0x39112200	0.00013840944
46	0x385d76cb	5.280114e-05
47	0x3806a269	3.2099346e-05
48	0x3786b410	1.6057893e-05
49	0x38393a44	4.41617e-05
50	0x36e6bd23	6.8765526e-06
51	0x371b6dd4	9.264291e-06
52	0x36c52423	5.8752644e-06
53	0x36acbb47	5.1478014e-06
54	0x38287a02	4.016795e-05
55	0x36ff733d	7.6130077e-06
56	0x3809cdf4	3.2855154e-05
57	0x37a96846	2.0194926e-05
58	0x3684018f	3.934088e-06
59	0x37063ed2	8.001649e-06
60	0x37d1e343	2.5020569e-05
61	0x379b07c2	1.8481052e-05
62	0x381adae5	3.6920323e-05
63	0x375174f7	1.2484604e-05
